<?xml version="1.0"?>
<net name="Model0" version="11">
	<layers>
		<layer id="3" name="input_ids" type="Parameter" version="opset1">
			<data shape="?,?" element_type="i64" />
			<output>
				<port id="0" precision="I64" names="input_ids">
					<dim>-1</dim>
					<dim>-1</dim>
				</port>
			</output>
		</layer>
		<layer id="2" name="attention_mask" type="Parameter" version="opset1">
			<data shape="?,?" element_type="i64" />
			<output>
				<port id="0" precision="I64" names="attention_mask">
					<dim>-1</dim>
					<dim>-1</dim>
				</port>
			</output>
		</layer>
		<layer id="1" name="position_ids" type="Parameter" version="opset1">
			<data shape="?,?" element_type="i64" />
			<output>
				<port id="0" precision="I64" names="position_ids">
					<dim>-1</dim>
					<dim>-1</dim>
				</port>
			</output>
		</layer>
		<layer id="0" name="beam_idx" type="Parameter" version="opset1">
			<data shape="?" element_type="i32" />
			<output>
				<port id="0" precision="I32" names="beam_idx">
					<dim>-1</dim>
				</port>
			</output>
		</layer>
		<layer id="4" name="Constant_88614" type="Const" version="opset1">
			<data element_type="f32" shape="" offset="0" size="4" />
			<output>
				<port id="0" precision="FP32" />
			</output>
		</layer>
		<layer id="5" name="ShapeOf_88600" type="ShapeOf" version="opset3">
			<data output_type="i64" />
			<input>
				<port id="0" precision="I64">
					<dim>-1</dim>
					<dim>-1</dim>
				</port>
			</input>
			<output>
				<port id="1" precision="I64">
					<dim>2</dim>
				</port>
			</output>
		</layer>
		<layer id="6" name="Constant_88602" type="Const" version="opset1">
			<data element_type="i64" shape="1" offset="4" size="8" />
			<output>
				<port id="0" precision="I64">
					<dim>1</dim>
				</port>
			</output>
		</layer>
		<layer id="7" name="Constant_88604" type="Const" version="opset1">
			<data element_type="i64" shape="" offset="4" size="8" />
			<output>
				<port id="0" precision="I64" />
			</output>
		</layer>
		<layer id="8" name="Gather_88605" type="Gather" version="opset8">
			<data batch_dims="0" />
			<input>
				<port id="0" precision="I64">
					<dim>2</dim>
				</port>
				<port id="1" precision="I64">
					<dim>1</dim>
				</port>
				<port id="2" precision="I64" />
			</input>
			<output>
				<port id="3" precision="I64">
					<dim>1</dim>
				</port>
			</output>
		</layer>
		<layer id="9" name="Constant_88607" type="Const" version="opset1">
			<data element_type="i64" shape="1" offset="12" size="8" />
			<output>
				<port id="0" precision="I64">
					<dim>1</dim>
				</port>
			</output>
		</layer>
		<layer id="10" name="Constant_88609" type="Const" version="opset1">
			<data element_type="i64" shape="1" offset="4" size="8" />
			<output>
				<port id="0" precision="I64">
					<dim>1</dim>
				</port>
			</output>
		</layer>
		<layer id="11" name="Constant_88611" type="Const" version="opset1">
			<data element_type="i64" shape="1" offset="20" size="8" />
			<output>
				<port id="0" precision="I64">
					<dim>1</dim>
				</port>
			</output>
		</layer>
		<layer id="12" name="Concat_88612" type="Concat" version="opset1">
			<data axis="0" />
			<input>
				<port id="0" precision="I64">
					<dim>1</dim>
				</port>
				<port id="1" precision="I64">
					<dim>1</dim>
				</port>
				<port id="2" precision="I64">
					<dim>1</dim>
				</port>
				<port id="3" precision="I64">
					<dim>1</dim>
				</port>
			</input>
			<output>
				<port id="4" precision="I64">
					<dim>4</dim>
				</port>
			</output>
		</layer>
		<layer id="13" name="Broadcast_88615" type="Broadcast" version="opset3">
			<data mode="numpy" />
			<input>
				<port id="0" precision="FP32" />
				<port id="1" precision="I64">
					<dim>4</dim>
				</port>
			</input>
			<output>
				<port id="2" precision="FP32">
					<dim>-1</dim>
					<dim>8</dim>
					<dim>0</dim>
					<dim>128</dim>
				</port>
			</output>
		</layer>
		<layer id="14" name="ReadValue_88188" type="ReadValue" version="opset6">
			<data variable_id="past_key_values.9.valuepresent.9.value" variable_type="f32" variable_shape="?,8,?,128" />
			<input>
				<port id="0" precision="FP32">
					<dim>-1</dim>
					<dim>8</dim>
					<dim>0</dim>
					<dim>128</dim>
				</port>
			</input>
			<output>
				<port id="1" precision="FP32" names="past_key_values.9.value">
					<dim>-1</dim>
					<dim>8</dim>
					<dim>-1</dim>
					<dim>128</dim>
				</port>
			</output>
		</layer>
		<layer id="15" name="Constant_87558" type="Const" version="opset1">
			<data element_type="i64" shape="" offset="4" size="8" />
			<output>
				<port id="0" precision="I64" />
			</output>
		</layer>
		<layer id="16" name="Gather_87559" type="Gather" version="opset8">
			<data batch_dims="0" />
			<input>
				<port id="0" precision="FP32">
					<dim>-1</dim>
					<dim>8</dim>
					<dim>-1</dim>
					<dim>128</dim>
				</port>
				<port id="1" precision="I32">
					<dim>-1</dim>
				</port>
				<port id="2" precision="I64" />
			</input>
			<output>
				<port id="3" precision="FP32">
					<dim>-1</dim>
					<dim>8</dim>
					<dim>-1</dim>
					<dim>128</dim>
				</port>
			</output>
		</layer>
		<layer id="17" name="Constant_77288" type="Const" version="opset1">
			<data element_type="f32" shape="1, 1, 1024" offset="28" size="4096" />
			<output>
				<port id="0" precision="FP32">
					<dim>1</dim>
					<dim>1</dim>
					<dim>1024</dim>
				</port>
			</output>
		</layer>
		<layer id="18" name="self.model.embed_tokens.weight" type="Const" version="opset1">
			<data element_type="bf16" shape="151936, 1024" offset="4124" size="311164928" />
			<output>
				<port id="0" precision="BF16" names="self.model.embed_tokens.weight">
					<dim>151936</dim>
					<dim>1024</dim>
				</port>
			</output>
		</layer>
		<layer id="19" name="__module.model.embed_tokens/ov_ext::embedding/Convert" type="Convert" version="opset1">
			<data destination_type="f32" />
			<rt_info>
				<attribute name="decompression" version="0" />
			</rt_info>
			<input>
				<port id="0" precision="BF16">
					<dim>151936</dim>
					<dim>1024</dim>
				</port>
			</input>
			<output>
				<port id="1" precision="FP32">
					<dim>151936</dim>
					<dim>1024</dim>
				</port>
			</output>
		</layer>
		<layer id="20" name="__module.model.embed_tokens/ov_ext::embedding/Convert_1" type="Convert" version="opset1">
			<data destination_type="i32" />
			<input>
				<port id="0" precision="I64">
					<dim>-1</dim>
					<dim>-1</dim>
				</port>
			</input>
			<output>
				<port id="1" precision="I32">
					<dim>-1</dim>
					<dim>-1</dim>
				</port>
			</output>
		</layer>
		<layer id="21" name="__module.model.embed_tokens/ov_ext::embedding/Constant" type="Const" version="opset1">
			<data element_type="i32" shape="" offset="0" size="4" />
			<output>
				<port id="0" precision="I32" />
			</output>
		</layer>
		<layer id="22" name="__module.model.embed_tokens/ov_ext::embedding/Gather" type="Gather" version="opset8">
			<data batch_dims="0" />
			<input>
				<port id="0" precision="FP32">
					<dim>151936</dim>
					<dim>1024</dim>
				</port>
				<port id="1" precision="I32">
					<dim>-1</dim>
					<dim>-1</dim>
				</port>
				<port id="2" precision="I32" />
			</input>
			<output>
				<port id="3" precision="FP32" names="281,363,374,hidden_states.1,inputs_embeds">
					<dim>-1</dim>
					<dim>-1</dim>
					<dim>1024</dim>
				</port>
			</output>
		</layer>
		<layer id="23" name="Constant_77148" type="Const" version="opset1">
			<data element_type="f32" shape="1, 1, 1, 128" offset="311169052" size="512" />
			<output>
				<port id="0" precision="FP32">
					<dim>1</dim>
					<dim>1</dim>
					<dim>1</dim>
					<dim>128</dim>
				</port>
			</output>
		</layer>
		<layer id="24" name="Constant_77144" type="Const" version="opset1">
			<data element_type="f32" shape="1, 1, 1024" offset="311169564" size="4096" />
			<output>
				<port id="0" precision="FP32">
					<dim>1</dim>
					<dim>1</dim>
					<dim>1024</dim>
				</port>
			</output>
		</layer>
		<layer id="25" name="Constant_77143" type="Const" version="opset1">
			<data element_type="f32" shape="1, 1, 1" offset="311173660" size="4" />
			<output>
				<port id="0" precision="FP32">
					<dim>1</dim>
					<dim>1</dim>
					<dim>1</dim>
				</port>
			</output>
		</layer>
		<layer id="26" name="Constant_77141" type="Const" version="opset1">
			<data element_type="f32" shape="1, 1, 1" offset="311173664" size="4" />
			<output>
				<port id="0" precision="FP32">
					<dim>1</dim>
					<dim>1</dim>
					<dim>1</dim>
				</port>
			</output>
		</layer>
		<layer id="27" name="__module.model.layers.0.input_layernorm/aten::pow/Power" type="Power" version="opset1">
			<data auto_broadcast="numpy" />
			<input>
				<port id="0" precision="FP32">
					<dim>-1</dim>
					<dim>-1</dim>
					<dim>1024</dim>
				</port>
				<port id="1" precision="FP32">
					<dim>1</dim>
					<dim>1</dim>
					<dim>1</dim>
				</port>
			</input>
			<output>
				<port id="2" precision="FP32" names="364">
					<dim>-1</dim>
					<dim>-1</dim>
					<dim>1024</dim>
				</port>
			</output>
		</layer>
		<layer id="28" name="Constant_399" type="Const" version="opset1">
			<data element_type="i64" shape="1" offset="311173668" size="8" />
			<output>
				<port id="0" precision="I64" names="365">
					<dim>1</dim>
				</port>
			</output>
		</layer>
		<layer id="29" name="__module.model.layers.0.input_layernorm/aten::mean/ReduceMean" type="ReduceMean" version="opset1">
			<data keep_dims="true" />
			<input>
				<port id="0" precision="FP32">
					<dim>-1</dim>
					<dim>-1</dim>
					<dim>1024</dim>
				</port>
				<port id="1" precision="I64">
					<dim>1</dim>
				</port>
			</input>
			<output>
				<port id="2" precision="FP32" names="366,variance.1">
					<dim>-1</dim>
					<dim>-1</dim>
					<dim>1</dim>
				</port>
			</output>
		</layer>
		<layer id="30" name="Constant_77142" type="Const" version="opset1">
			<data element_type="f32" shape="1, 1, 1" offset="311173676" size="4" />
			<output>
				<port id="0" precision="FP32">
					<dim>1</dim>
					<dim>1</dim>
					<dim>1</dim>
				</port>
			</output>
		</layer>
		<layer id="31" name="__module.model.layers.0.input_layernorm/aten::add/Add" type="Add" version="opset1">
			<data auto_broadcast="numpy" />
			<input>
				<port id="0" precision="FP32">
					<dim>-1</dim>
					<dim>-1</dim>
					<dim>1</dim>
				</port>
				<port id="1" precision="FP32">
					<dim>1</dim>
					<dim>1</dim>
					<dim>1</dim>
				</port>
			</input>
			<output>
				<port id="2" precision="FP32" names="367">
					<dim>-1</dim>
					<dim>-1</dim>
					<dim>1</dim>
				</port>
			</output>
		</layer>
		<layer id="32" name="__module.model.layers.0.input_layernorm/aten::rsqrt/Sqrt" type="Sqrt" version="opset1">
			<input>
				<port id="0" precision="FP32">
					<dim>-1</dim>
					<dim>-1</dim>
					<dim>1</dim>
				</port>
			</input>
			<output>
				<port id="1" precision="FP32">
					<dim>-1</dim>
					<dim>-1</dim>
					<dim>1</dim>
				</port>
			</output>
		</layer>
		<layer id="33" name="__module.model.layers.0.input_layernorm/aten::rsqrt/Divide" type="Divide" version="opset1">
			<data auto_broadcast="numpy" m_pythondiv="true" />
			<input>
				<port id="0" precision="FP32">
					<dim>1</dim>
					<dim>1</dim>
					<dim>1</dim>
				</port>
				<port id="1" precision="FP32">
					<dim>-1</dim>
					<dim>-1</dim>
					<dim>1</dim>
				</port>
			</input>
			<output>
				<port id="2" precision="FP32" names="368">
					<dim>-1</dim>
					<dim>-1</dim>
					<dim>1</dim>
				</port>
			</output>
		</layer>
		<layer id="34" name="__module.model.layers.0.input_layernorm/aten::mul/Multiply" type="Multiply" version="opset1">
			<data auto_broadcast="numpy" />
			<input>
				<port id="0" precision="FP32">
					<dim>-1</dim>
					<dim>-1</dim>
					<dim>1024</dim>
				</port>
				<port id="1" precision="FP32">
					<dim>-1</dim>
					<dim>-1</dim>
					<dim>1</dim>
				</port>
			</input>
			<output>
				<port id="2" precision="FP32" names="369,370,hidden_states.3,hidden_states.5">
					<dim>-1</dim>
					<dim>-1</dim>
					<dim>1024</dim>
				</port>
			</output>
		</layer>
		<layer id="35" name="__module.model.layers.0.input_layernorm/aten::mul/Multiply_1" type="Multiply" version="opset1">
			<data auto_broadcast="numpy" />
			<input>
				<port id="0" precision="FP32">
					<dim>1</dim>
					<dim>1</dim>
					<dim>1024</dim>
				</port>
				<port id="1" precision="FP32">
					<dim>-1</dim>
					<dim>-1</dim>
					<dim>1024</dim>
				</port>
			</input>
			<output>
				<port id="2" precision="FP32" names="371,373,hidden_states.7">
					<dim>-1</dim>
					<dim>-1</dim>
					<dim>1024</dim>
				</port>
			</output>
		</layer>
		<layer id="36" name="self.model.layers.0.self_attn.q_proj.weight" type="Const" version="opset1">
			<data element_type="bf16" shape="2048, 1024" offset="311173680" size="4194304" />
			<output>
				<port id="0" precision="BF16" names="self.model.layers.0.self_attn.q_proj.weight">
					<dim>2048</dim>
					<dim>1024</dim>
				</port>
			</output>
		</layer>
		<layer id="37" name="__module.model.layers.0.self_attn.q_proj/ov_ext::linear/Convert" type="Convert" version="opset1">
			<data destination_type="f32" />
			<rt_info>
				<attribute name="decompression" version="0" />
			</rt_info>
			<input>
				<port id="0" precision="BF16">
					<dim>2048</dim>
					<dim>1024</dim>
				</port>
			</input>
			<output>
				<port id="1" precision="FP32">
					<dim>2048</dim>
					<dim>1024</dim>
				</port>
			</output>
		</layer>
		<layer id="38" name="__module.model.layers.0.self_attn.q_proj/ov_ext::linear/MatMul" type="MatMul" version="opset1">
			<data transpose_a="false" transpose_b="true" />
			<input>
				<port id="0" precision="FP32">
					<dim>-1</dim>
					<dim>-1</dim>
					<dim>1024</dim>
				</port>
				<port id="1" precision="FP32">
					<dim>2048</dim>
					<dim>1024</dim>
				</port>
			</input>
			<output>
				<port id="2" precision="FP32" names="384">
					<dim>-1</dim>
					<dim>-1</dim>
					<dim>2048</dim>
				</port>
			</output>
		</layer>
		<layer id="39" name="Constant_85876" type="Const" version="opset1">
			<data element_type="i64" shape="4" offset="315367984" size="32" />
			<output>
				<port id="0" precision="I64">
					<dim>4</dim>
				</port>
			</output>
		</layer>
		<layer id="40" name="__module.model.layers.0.self_attn/aten::view/Reshape" type="Reshape" version="opset1">
			<data special_zero="true" />
			<input>
				<port id="0" precision="FP32">
					<dim>-1</dim>
					<dim>-1</dim>
					<dim>2048</dim>
				</port>
				<port id="1" precision="I64">
					<dim>4</dim>
				</port>
			</input>
			<output>
				<port id="2" precision="FP32" names="386,388,hidden_states.11,hidden_states.9">
					<dim>-1</dim>
					<dim>-1</dim>
					<dim>16</dim>
					<dim>128</dim>
				</port>
			</output>
		</layer>
		<layer id="41" name="Constant_77147" type="Const" version="opset1">
			<data element_type="f32" shape="1, 1, 1, 1" offset="311173660" size="4" />
			<output>
				<port id="0" precision="FP32">
					<dim>1</dim>
					<dim>1</dim>
					<dim>1</dim>
					<dim>1</dim>
				</port>
			</output>
		</layer>
		<layer id="42" name="Constant_77145" type="Const" version="opset1">
			<data element_type="f32" shape="1, 1, 1, 1" offset="311173664" size="4" />
			<output>
				<port id="0" precision="FP32">
					<dim>1</dim>
					<dim>1</dim>
					<dim>1</dim>
					<dim>1</dim>
				</port>
			</output>
		</layer>
		<layer id="43" name="__module.model.layers.0.self_attn.q_norm/aten::pow/Power" type="Power" version="opset1">
			<data auto_broadcast="numpy" />
			<input>
				<port id="0" precision="FP32">
					<dim>-1</dim>
					<dim>-1</dim>
					<dim>16</dim>
					<dim>128</dim>
				</port>
				<port id="1" precision="FP32">
					<dim>1</dim>
					<dim>1</dim>
					<dim>1</dim>
					<dim>1</dim>
				</port>
			</input>
			<output>
				<port id="2" precision="FP32" names="389">
					<dim>-1</dim>
					<dim>-1</dim>
					<dim>16</dim>
					<dim>128</dim>
				</port>
			</output>
		</layer>
		<layer id="44" name="Constant_468" type="Const" version="opset1">
			<data element_type="i64" shape="1" offset="311173668" size="8" />
			<output>
				<port id="0" precision="I64" names="390">
					<dim>1</dim>
				</port>
			</output>
		</layer>
		<layer id="45" name="__module.model.layers.0.self_attn.q_norm/aten::mean/ReduceMean" type="ReduceMean" version="opset1">
			<data keep_dims="true" />
			<input>
				<port id="0" precision="FP32">
					<dim>-1</dim>
					<dim>-1</dim>
					<dim>16</dim>
					<dim>128</dim>
				</port>
				<port id="1" precision="I64">
					<dim>1</dim>
				</port>
			</input>
			<output>
				<port id="2" precision="FP32" names="391,variance.3">
					<dim>-1</dim>
					<dim>-1</dim>
					<dim>16</dim>
					<dim>1</dim>
				</port>
			</output>
		</layer>
		<layer id="46" name="Constant_77146" type="Const" version="opset1">
			<data element_type="f32" shape="1, 1, 1, 1" offset="311173676" size="4" />
			<output>
				<port id="0" precision="FP32">
					<dim>1</dim>
					<dim>1</dim>
					<dim>1</dim>
					<dim>1</dim>
				</port>
			</output>
		</layer>
		<layer id="47" name="__module.model.layers.0.self_attn.q_norm/aten::add/Add" type="Add" version="opset1">
			<data auto_broadcast="numpy" />
			<input>
				<port id="0" precision="FP32">
					<dim>-1</dim>
					<dim>-1</dim>
					<dim>16</dim>
					<dim>1</dim>
				</port>
				<port id="1" precision="FP32">
					<dim>1</dim>
					<dim>1</dim>
					<dim>1</dim>
					<dim>1</dim>
				</port>
			</input>
			<output>
				<port id="2" precision="FP32" names="392">
					<dim>-1</dim>
					<dim>-1</dim>
					<dim>16</dim>
					<dim>1</dim>
				</port>
			</output>
		</layer>
		<layer id="48" name="__module.model.layers.0.self_attn.q_norm/aten::rsqrt/Sqrt" type="Sqrt" version="opset1">
			<input>
				<port id="0" precision="FP32">
					<dim>-1</dim>
					<dim>-1</dim>
					<dim>16</dim>
					<dim>1</dim>
				</port>
			</input>
			<output>
				<port id="1" precision="FP32">
					<dim>-1</dim>
					<dim>-1</dim>
					<dim>16</dim>
					<dim>1</dim>
				</port>
			</output>
		</layer>
		<layer id="49" name="__module.model.layers.0.self_attn.q_norm/aten::rsqrt/Divide" type="Divide" version="opset1">
			<data auto_broadcast="numpy" m_pythondiv="true" />
			<input>
				<port id="0" precision="FP32">
					<dim>1</dim>
					<dim>1</dim>
					<dim>1</dim>
					<dim>1</dim>
				</port>
				<port id="1" precision="FP32">
					<dim>-1</dim>
					<dim>-1</dim>
					<dim>16</dim>
					<dim>1</dim>
				</port>
			</input>
			<output>
				<port id="2" precision="FP32" names="393">
					<dim>-1</dim>
					<dim>-1</dim>
					<dim>16</dim>
					<dim>1</dim>
				</port>
			</output>
		</layer>
		<layer id="50" name="__module.model.layers.0.self_attn.q_norm/aten::mul/Multiply" type="Multiply" version="opset1">
			<data auto_broadcast="numpy" />
			<input>
				<port id="0" precision="FP32">
					<dim>-1</dim>
					<dim>-1</dim>
					<dim>16</dim>
					<dim>128</dim>
				</port>
				<port id="1" precision="FP32">
					<dim>-1</dim>
					<dim>-1</dim>
					<dim>16</dim>
					<dim>1</dim>
				</port>
			</input>
			<output>
				<port id="2" precision="FP32" names="394,395,hidden_states.13,hidden_states.15">
					<dim>-1</dim>
					<dim>-1</dim>
					<dim>16</dim>
					<dim>128</dim>
				</port>
			</output>
		</layer>
		<layer id="51" name="__module.model.layers.0.self_attn.q_norm/aten::mul/Multiply_1" type="Multiply" version="opset1">
			<data auto_broadcast="numpy" />
			<input>
				<port id="0" precision="FP32">
					<dim>1</dim>
					<dim>1</dim>
					<dim>1</dim>
					<dim>128</dim>
				</port>
				<port id="1" precision="FP32">
					<dim>-1</dim>
					<dim>-1</dim>
					<dim>16</dim>
					<dim>128</dim>
				</port>
			</input>
			<output>
				<port id="2" precision="FP32" names="396">
					<dim>-1</dim>
					<dim>-1</dim>
					<dim>16</dim>
					<dim>128</dim>
				</port>
			</output>
		</layer>
		<layer id="52" name="__module.model.layers.0.self_attn/aten::transpose/Constant" type="Const" version="opset1">
			<data element_type="i32" shape="4" offset="315368016" size="16" />
			<output>
				<port id="0" precision="I32">
					<dim>4</dim>
				</port>
			</output>
		</layer>
		<layer id="53" name="__module.model.layers.0.self_attn/aten::transpose/Transpose" type="Transpose" version="opset1">
			<input>
				<port id="0" precision="FP32">
					<dim>-1</dim>
					<dim>-1</dim>
					<dim>16</dim>
					<dim>128</dim>
				</port>
				<port id="1" precision="I32">
					<dim>4</dim>
				</port>
			</input>
			<output>
				<port id="2" precision="FP32" names="397,q.1">
					<dim>-1</dim>
					<dim>16</dim>
					<dim>-1</dim>
					<dim>128</dim>
				</port>
			</output>
		</layer>
		<layer id="54" name="__module.model.rotary_emb/aten::to/Convert" type="Const" version="opset1">
			<data element_type="f32" shape="1, 64, 1" offset="315368032" size="256" />
			<output>
				<port id="0" precision="FP32" names="334">
					<dim>1</dim>
					<dim>64</dim>
					<dim>1</dim>
				</port>
			</output>
		</layer>
		<layer id="55" name="ShapeOf_79159" type="ShapeOf" version="opset3">
			<data output_type="i64" />
			<input>
				<port id="0" precision="FP32">
					<dim>-1</dim>
					<dim>-1</dim>
					<dim>1024</dim>
				</port>
			</input>
			<output>
				<port id="1" precision="I64">
					<dim>3</dim>
				</port>
			</output>
		</layer>
		<layer id="56" name="Constant_79160" type="Const" version="opset1">
			<data element_type="i64" shape="1" offset="4" size="8" />
			<output>
				<port id="0" precision="I64">
					<dim>1</dim>
				</port>
			</output>
		</layer>
		<layer id="57" name="Constant_79161" type="Const" version="opset1">
			<data element_type="i64" shape="" offset="4" size="8" />
			<output>
				<port id="0" precision="I64" />
			</output>
		</layer>
		<layer id="58" name="Gather_79162" type="Gather" version="opset8">
			<data batch_dims="0" />
			<input>
				<port id="0" precision="I64">
					<dim>3</dim>
				</port>
				<port id="1" precision="I64">
					<dim>1</dim>
				</port>
				<port id="2" precision="I64" />
			</input>
			<output>
				<port id="3" precision="I64" names="1003,1164,1180,1341,1357,1518,1534,1695,1711,1872,1888,2049,2065,2226,2242,2403,2419,2580,2596,2757,2773,2934,2950,3111,3127,3288,3304,335,3465,3481,3642,3658,3819,3835,3996,4012,4173,4189,4350,4366,4527,4543,456,4704,472,4720,4881,4897,5058,5074,5235,5251,633,649,810,826,987">
					<dim>1</dim>
				</port>
			</output>
		</layer>
		<layer id="59" name="Constant_68480" type="Const" version="opset1">
			<data element_type="i64" shape="1" offset="315368288" size="8" />
			<output>
				<port id="0" precision="I64">
					<dim>1</dim>
				</port>
			</output>
		</layer>
		<layer id="60" name="Constant_68482" type="Const" version="opset1">
			<data element_type="i64" shape="1" offset="315368288" size="8" />
			<output>
				<port id="0" precision="I64">
					<dim>1</dim>
				</port>
			</output>
		</layer>
		<layer id="61" name="__module.model.rotary_emb/prim::ListConstruct" type="Concat" version="opset1">
			<data axis="0" />
			<input>
				<port id="0" precision="I64">
					<dim>1</dim>
				</port>
				<port id="1" precision="I64">
					<dim>1</dim>
				</port>
				<port id="2" precision="I64">
					<dim>1</dim>
				</port>
			</input>
			<output>
				<port id="3" precision="I64">
					<dim>3</dim>
				</port>
			</output>
		</layer>
		<layer id="62" name="__module.model.rotary_emb/aten::expand/Broadcast" type="Broadcast" version="opset3">
			<data mode="bidirectional" />
			<input>
				<port id="0" precision="FP32">
					<dim>1</dim>
					<dim>64</dim>
					<dim>1</dim>
				</port>
				<port id="1" precision="I64">
					<dim>3</dim>
				</port>
			</input>
			<output>
				<port id="2" precision="FP32" names="337,338,343,inv_freq_expanded,inv_freq_expanded.1">
					<dim>-1</dim>
					<dim>64</dim>
					<dim>1</dim>
				</port>
			</output>
		</layer>
		<layer id="63" name="219" type="Const" version="opset1">
			<data element_type="i64" shape="" offset="315368288" size="8" />
			<output>
				<port id="0" precision="I64" names="219" />
			</output>
		</layer>
		<layer id="64" name="__module.model.rotary_emb/aten::unsqueeze/Unsqueeze_2" type="Unsqueeze" version="opset1">
			<input>
				<port id="0" precision="I64">
					<dim>-1</dim>
					<dim>-1</dim>
				</port>
				<port id="1" precision="I64" />
			</input>
			<output>
				<port id="2" precision="I64" names="340,341">
					<dim>-1</dim>
					<dim>1</dim>
					<dim>-1</dim>
				</port>
			</output>
		</layer>
		<layer id="65" name="__module.model.rotary_emb/aten::to/Convert_3" type="Convert" version="opset1">
			<data destination_type="f32" />
			<input>
				<port id="0" precision="I64">
					<dim>-1</dim>
					<dim>1</dim>
					<dim>-1</dim>
				</port>
			</input>
			<output>
				<port id="1" precision="FP32" names="342,344,position_ids_expanded,position_ids_expanded.1">
					<dim>-1</dim>
					<dim>1</dim>
					<dim>-1</dim>
				</port>
			</output>
		</layer>
		<layer id="66" name="__module.model.rotary_emb/aten::matmul/MatMul" type="MatMul" version="opset1">
			<data transpose_a="false" transpose_b="false" />
			<input>
				<port id="0" precision="FP32">
					<dim>-1</dim>
					<dim>64</dim>
					<dim>1</dim>
				</port>
				<port id="1" precision="FP32">
					<dim>-1</dim>
					<dim>1</dim>
					<dim>-1</dim>
				</port>
			</input>
			<output>
				<port id="2" precision="FP32" names="345">
					<dim>-1</dim>
					<dim>64</dim>
					<dim>-1</dim>
				</port>
			</output>
		</layer>
		<layer id="67" name="__module.model.rotary_emb/aten::transpose/Constant" type="Const" version="opset1">
			<data element_type="i32" shape="3" offset="315368296" size="12" />
			<output>
				<port id="0" precision="I32">
					<dim>3</dim>
				</port>
			</output>
		</layer>
		<layer id="68" name="__module.model.rotary_emb/aten::transpose/Transpose" type="Transpose" version="opset1">
			<input>
				<port id="0" precision="FP32">
					<dim>-1</dim>
					<dim>64</dim>
					<dim>-1</dim>
				</port>
				<port id="1" precision="I32">
					<dim>3</dim>
				</port>
			</input>
			<output>
				<port id="2" precision="FP32" names="346,freqs">
					<dim>-1</dim>
					<dim>-1</dim>
					<dim>64</dim>
				</port>
			</output>
		</layer>
		<layer id="69" name="__module.model.rotary_emb/aten::cat/Concat" type="Concat" version="opset1">
			<data axis="-1" />
			<input>
				<port id="0" precision="FP32">
					<dim>-1</dim>
					<dim>-1</dim>
					<dim>64</dim>
				</port>
				<port id="1" precision="FP32">
					<dim>-1</dim>
					<dim>-1</dim>
					<dim>64</dim>
				</port>
			</input>
			<output>
				<port id="2" precision="FP32" names="348,emb">
					<dim>-1</dim>
					<dim>-1</dim>
					<dim>128</dim>
				</port>
			</output>
		</layer>
		<layer id="70" name="__module.model.rotary_emb/aten::cos/Cos" type="Cos" version="opset1">
			<input>
				<port id="0" precision="FP32">
					<dim>-1</dim>
					<dim>-1</dim>
					<dim>128</dim>
				</port>
			</input>
			<output>
				<port id="1" precision="FP32" names="349,350,353,356,cos.1,cos.3">
					<dim>-1</dim>
					<dim>-1</dim>
					<dim>128</dim>
				</port>
			</output>
		</layer>
		<layer id="71" name="__module.model.layers.0.self_attn/aten::unsqueeze/Unsqueeze" type="Unsqueeze" version="opset1">
			<input>
				<port id="0" precision="FP32">
					<dim>-1</dim>
					<dim>-1</dim>
					<dim>128</dim>
				</port>
				<port id="1" precision="I64" />
			</input>
			<output>
				<port id="2" precision="FP32" names="1126,1303,1480,1657,1834,2011,2188,2365,2542,2719,2896,3073,3250,3427,3604,3781,3958,4135,418,4312,4489,4666,4843,5020,5197,595,772,949,cos,cos.11,cos.13,cos.15,cos.17,cos.19,cos.21,cos.23,cos.25,cos.27,cos.29,cos.31,cos.33,cos.35,cos.37,cos.39,cos.41,cos.43,cos.45,cos.47,cos.49,cos.5,cos.51,cos.53,cos.55,cos.57,cos.7,cos.9">
					<dim>-1</dim>
					<dim>1</dim>
					<dim>-1</dim>
					<dim>128</dim>
				</port>
			</output>
		</layer>
		<layer id="72" name="__module.model.layers.0.self_attn/aten::mul/Multiply" type="Multiply" version="opset1">
			<data auto_broadcast="numpy" />
			<input>
				<port id="0" precision="FP32">
					<dim>-1</dim>
					<dim>16</dim>
					<dim>-1</dim>
					<dim>128</dim>
				</port>
				<port id="1" precision="FP32">
					<dim>-1</dim>
					<dim>1</dim>
					<dim>-1</dim>
					<dim>128</dim>
				</port>
			</input>
			<output>
				<port id="2" precision="FP32" names="420">
					<dim>-1</dim>
					<dim>16</dim>
					<dim>-1</dim>
					<dim>128</dim>
				</port>
			</output>
		</layer>
		<layer id="73" name="Constant_783" type="Const" version="opset1">
			<data element_type="i64" shape="1" offset="315368308" size="8" />
			<output>
				<port id="0" precision="I64">
					<dim>1</dim>
				</port>
			</output>
		</layer>
		<layer id="74" name="Constant_785" type="Const" version="opset1">
			<data element_type="i64" shape="1" offset="315368316" size="8" />
			<output>
				<port id="0" precision="I64">
					<dim>1</dim>
				</port>
			</output>
		</layer>
		<layer id="75" name="Constant_787" type="Const" version="opset1">
			<data element_type="i64" shape="1" offset="315368288" size="8" />
			<output>
				<port id="0" precision="I64">
					<dim>1</dim>
				</port>
			</output>
		</layer>
		<layer id="76" name="Constant_739" type="Const" version="opset1">
			<data element_type="i64" shape="1" offset="315368324" size="8" />
			<output>
				<port id="0" precision="I64">
					<dim>1</dim>
				</port>
			</output>
		</layer>
		<layer id="77" name="__module.model.layers.0.self_attn/aten::slice/Slice" type="Slice" version="opset8">
			<input>
				<port id="0" precision="FP32">
					<dim>-1</dim>
					<dim>16</dim>
					<dim>-1</dim>
					<dim>128</dim>
				</port>
				<port id="1" precision="I64">
					<dim>1</dim>
				</port>
				<port id="2" precision="I64">
					<dim>1</dim>
				</port>
				<port id="3" precision="I64">
					<dim>1</dim>
				</port>
				<port id="4" precision="I64">
					<dim>1</dim>
				</port>
			</input>
			<output>
				<port id="5" precision="FP32" names="430,x2.1">
					<dim>-1</dim>
					<dim>16</dim>
					<dim>-1</dim>
					<dim>64</dim>
				</port>
			</output>
		</layer>
		<layer id="78" name="__module.model.layers.0.self_attn/aten::neg/Constant" type="Const" version="opset1">
			<data element_type="i32" shape="" offset="315368332" size="4" />
			<output>
				<port id="0" precision="I32" />
			</output>
		</layer>
		<layer id="79" name="__module.model.layers.0.self_attn/aten::neg/ConvertLike" type="Convert" version="opset1">
			<data destination_type="f32" />
			<input>
				<port id="0" precision="I32" />
			</input>
			<output>
				<port id="1" precision="FP32" />
			</output>
		</layer>
		<layer id="80" name="__module.model.layers.0.self_attn/aten::neg/Multiply" type="Multiply" version="opset1">
			<data auto_broadcast="numpy" />
			<input>
				<port id="0" precision="FP32">
					<dim>-1</dim>
					<dim>16</dim>
					<dim>-1</dim>
					<dim>64</dim>
				</port>
				<port id="1" precision="FP32" />
			</input>
			<output>
				<port id="2" precision="FP32" names="431">
					<dim>-1</dim>
					<dim>16</dim>
					<dim>-1</dim>
					<dim>64</dim>
				</port>
			</output>
		</layer>
		<layer id="81" name="Constant_680" type="Const" version="opset1">
			<data element_type="i64" shape="1" offset="4" size="8" />
			<output>
				<port id="0" precision="I64">
					<dim>1</dim>
				</port>
			</output>
		</layer>
		<layer id="82" name="Constant_724" type="Const" version="opset1">
			<data element_type="i64" shape="1" offset="315368308" size="8" />
			<output>
				<port id="0" precision="I64">
					<dim>1</dim>
				</port>
			</output>
		</layer>
		<layer id="83" name="Constant_726" type="Const" version="opset1">
			<data element_type="i64" shape="1" offset="315368288" size="8" />
			<output>
				<port id="0" precision="I64">
					<dim>1</dim>
				</port>
			</output>
		</layer>
		<layer id="84" name="Constant_678" type="Const" version="opset1">
			<data element_type="i64" shape="1" offset="315368324" size="8" />
			<output>
				<port id="0" precision="I64">
					<dim>1</dim>
				</port>
			</output>
		</layer>
		<layer id="85" name="__module.model.layers.0.self_attn/aten::slice/Slice_1" type="Slice" version="opset8">
			<input>
				<port id="0" precision="FP32">
					<dim>-1</dim>
					<dim>16</dim>
					<dim>-1</dim>
					<dim>128</dim>
				</port>
				<port id="1" precision="I64">
					<dim>1</dim>
				</port>
				<port id="2" precision="I64">
					<dim>1</dim>
				</port>
				<port id="3" precision="I64">
					<dim>1</dim>
				</port>
				<port id="4" precision="I64">
					<dim>1</dim>
				</port>
			</input>
			<output>
				<port id="5" precision="FP32" names="425,x1.1">
					<dim>-1</dim>
					<dim>16</dim>
					<dim>-1</dim>
					<dim>64</dim>
				</port>
			</output>
		</layer>
		<layer id="86" name="__module.model.layers.0.self_attn/aten::cat/Concat" type="Concat" version="opset1">
			<data axis="-1" />
			<input>
				<port id="0" precision="FP32">
					<dim>-1</dim>
					<dim>16</dim>
					<dim>-1</dim>
					<dim>64</dim>
				</port>
				<port id="1" precision="FP32">
					<dim>-1</dim>
					<dim>16</dim>
					<dim>-1</dim>
					<dim>64</dim>
				</port>
			</input>
			<output>
				<port id="2" precision="FP32" names="433">
					<dim>-1</dim>
					<dim>16</dim>
					<dim>-1</dim>
					<dim>128</dim>
				</port>
			</output>
		</layer>
		<layer id="87" name="__module.model.rotary_emb/aten::sin/Sin" type="Sin" version="opset1">
			<input>
				<port id="0" precision="FP32">
					<dim>-1</dim>
					<dim>-1</dim>
					<dim>128</dim>
				</port>
			</input>
			<output>
				<port id="1" precision="FP32" names="351,352,354,357,sin.1,sin.3">
					<dim>-1</dim>
					<dim>-1</dim>
					<dim>128</dim>
				</port>
			</output>
		</layer>
		<layer id="88" name="__module.model.layers.0.self_attn/aten::unsqueeze/Unsqueeze_1" type="Unsqueeze" version="opset1">
			<input>
				<port id="0" precision="FP32">
					<dim>-1</dim>
					<dim>-1</dim>
					<dim>128</dim>
				</port>
				<port id="1" precision="I64" />
			</input>
			<output>
				<port id="2" precision="FP32" names="1127,1304,1481,1658,1835,2012,2189,2366,2543,2720,2897,3074,3251,3428,3605,3782,3959,4136,419,4313,4490,4667,4844,5021,5198,596,773,950,sin,sin.11,sin.13,sin.15,sin.17,sin.19,sin.21,sin.23,sin.25,sin.27,sin.29,sin.31,sin.33,sin.35,sin.37,sin.39,sin.41,sin.43,sin.45,sin.47,sin.49,sin.5,sin.51,sin.53,sin.55,sin.57,sin.7,sin.9">
					<dim>-1</dim>
					<dim>1</dim>
					<dim>-1</dim>
					<dim>128</dim>
				</port>
			</output>
		</layer>
		<layer id="89" name="__module.model.layers.0.self_attn/aten::mul/Multiply_1" type="Multiply" version="opset1">
			<data auto_broadcast="numpy" />
			<input>
				<port id="0" precision="FP32">
					<dim>-1</dim>
					<dim>16</dim>
					<dim>-1</dim>
					<dim>128</dim>
				</port>
				<port id="1" precision="FP32">
					<dim>-1</dim>
					<dim>1</dim>
					<dim>-1</dim>
					<dim>128</dim>
				</port>
			</input>
			<output>
				<port id="2" precision="FP32" names="434">
					<dim>-1</dim>
					<dim>16</dim>
					<dim>-1</dim>
					<dim>128</dim>
				</port>
			</output>
		</layer>
		<layer id="90" name="__module.model.layers.0.self_attn/aten::add/Add" type="Add" version="opset1">
			<data auto_broadcast="numpy" />
			<input>
				<port id="0" precision="FP32">
					<dim>-1</dim>
					<dim>16</dim>
					<dim>-1</dim>
					<dim>128</dim>
				</port>
				<port id="1" precision="FP32">
					<dim>-1</dim>
					<dim>16</dim>
					<dim>-1</dim>
					<dim>128</dim>
				</port>
			</input>
			<output>
				<port id="2" precision="FP32" names="435,query.1">
					<dim>-1</dim>
					<dim>16</dim>
					<dim>-1</dim>
					<dim>128</dim>
				</port>
			</output>
		</layer>
		<layer id="91" name="Constant_88626" type="Const" version="opset1">
			<data element_type="f32" shape="" offset="0" size="4" />
			<output>
				<port id="0" precision="FP32" />
			</output>
		</layer>
		<layer id="92" name="Constant_88619" type="Const" version="opset1">
			<data element_type="i64" shape="1" offset="12" size="8" />
			<output>
				<port id="0" precision="I64">
					<dim>1</dim>
				</port>
			</output>
		</layer>
		<layer id="93" name="Constant_88621" type="Const" version="opset1">
			<data element_type="i64" shape="1" offset="4" size="8" />
			<output>
				<port id="0" precision="I64">
					<dim>1</dim>
				</port>
			</output>
		</layer>
		<layer id="94" name="Constant_88623" type="Const" version="opset1">
			<data element_type="i64" shape="1" offset="20" size="8" />
			<output>
				<port id="0" precision="I64">
					<dim>1</dim>
				</port>
			</output>
		</layer>
		<layer id="95" name="Concat_88624" type="Concat" version="opset1">
			<data axis="0" />
			<input>
				<port id="0" precision="I64">
					<dim>1</dim>
				</port>
				<port id="1" precision="I64">
					<dim>1</dim>
				</port>
				<port id="2" precision="I64">
					<dim>1</dim>
				</port>
				<port id="3" precision="I64">
					<dim>1</dim>
				</port>
			</input>
			<output>
				<port id="4" precision="I64">
					<dim>4</dim>
				</port>
			</output>
		</layer>
		<layer id="96" name="Broadcast_88627" type="Broadcast" version="opset3">
			<data mode="numpy" />
			<input>
				<port id="0" precision="FP32" />
				<port id="1" precision="I64">
					<dim>4</dim>
				</port>
			</input>
			<output>
				<port id="2" precision="FP32">
					<dim>-1</dim>
					<dim>8</dim>
					<dim>0</dim>
					<dim>128</dim>
				</port>
			</output>
		</layer>
		<layer id="97" name="ReadValue_88078" type="ReadValue" version="opset6">
			<data variable_id="past_key_values.0.keypresent.0.key" variable_type="f32" variable_shape="?,8,?,128" />
			<input>
				<port id="0" precision="FP32">
					<dim>-1</dim>
					<dim>8</dim>
					<dim>0</dim>
					<dim>128</dim>
				</port>
			</input>
			<output>
				<port id="1" precision="FP32" names="past_key_values.0.key">
					<dim>-1</dim>
					<dim>8</dim>
					<dim>-1</dim>
					<dim>128</dim>
				</port>
			</output>
		</layer>
		<layer id="98" name="Constant_87501" type="Const" version="opset1">
			<data element_type="i64" shape="" offset="4" size="8" />
			<output>
				<port id="0" precision="I64" />
			</output>
		</layer>
		<layer id="99" name="Gather_87502" type="Gather" version="opset8">
			<data batch_dims="0" />
			<input>
				<port id="0" precision="FP32">
					<dim>-1</dim>
					<dim>8</dim>
					<dim>-1</dim>
					<dim>128</dim>
				</port>
				<port id="1" precision="I32">
					<dim>-1</dim>
				</port>
				<port id="2" precision="I64" />
			</input>
			<output>
				<port id="3" precision="FP32">
					<dim>-1</dim>
					<dim>8</dim>
					<dim>-1</dim>
					<dim>128</dim>
				</port>
			</output>
		</layer>
		<layer id="100" name="Constant_77152" type="Const" version="opset1">
			<data element_type="f32" shape="1, 1, 1, 128" offset="315368336" size="512" />
			<output>
				<port id="0" precision="FP32">
					<dim>1</dim>
					<dim>1</dim>
					<dim>1</dim>
					<dim>128</dim>
				</port>
			</output>
		</layer>
		<layer id="101" name="self.model.layers.0.self_attn.k_proj.weight" type="Const" version="opset1">
			<data element_type="bf16" shape="1024, 1024" offset="315368848" size="2097152" />
			<output>
				<port id="0" precision="BF16" names="self.model.layers.0.self_attn.k_proj.weight">
					<dim>1024</dim>
					<dim>1024</dim>
				</port>
			</output>
		</layer>
		<layer id="102" name="__module.model.layers.0.self_attn.k_proj/ov_ext::linear/Convert" type="Convert" version="opset1">
			<data destination_type="f32" />
			<rt_info>
				<attribute name="decompression" version="0" />
			</rt_info>
			<input>
				<port id="0" precision="BF16">
					<dim>1024</dim>
					<dim>1024</dim>
				</port>
			</input>
			<output>
				<port id="1" precision="FP32">
					<dim>1024</dim>
					<dim>1024</dim>
				</port>
			</output>
		</layer>
		<layer id="103" name="__module.model.layers.0.self_attn.k_proj/ov_ext::linear/MatMul" type="MatMul" version="opset1">
			<data transpose_a="false" transpose_b="true" />
			<input>
				<port id="0" precision="FP32">
					<dim>-1</dim>
					<dim>-1</dim>
					<dim>1024</dim>
				</port>
				<port id="1" precision="FP32">
					<dim>1024</dim>
					<dim>1024</dim>
				</port>
			</input>
			<output>
				<port id="2" precision="FP32" names="399">
					<dim>-1</dim>
					<dim>-1</dim>
					<dim>1024</dim>
				</port>
			</output>
		</layer>
		<layer id="104" name="Constant_85877" type="Const" version="opset1">
			<data element_type="i64" shape="4" offset="317466000" size="32" />
			<output>
				<port id="0" precision="I64">
					<dim>4</dim>
				</port>
			</output>
		</layer>
		<layer id="105" name="__module.model.layers.0.self_attn/aten::view/Reshape_1" type="Reshape" version="opset1">
			<data special_zero="true" />
			<input>
				<port id="0" precision="FP32">
					<dim>-1</dim>
					<dim>-1</dim>
					<dim>1024</dim>
				</port>
				<port id="1" precision="I64">
					<dim>4</dim>
				</port>
			</input>
			<output>
				<port id="2" precision="FP32" names="401,403,hidden_states.17,hidden_states.19">
					<dim>-1</dim>
					<dim>-1</dim>
					<dim>8</dim>
					<dim>128</dim>
				</port>
			</output>
		</layer>
		<layer id="106" name="Constant_77151" type="Const" version="opset1">
			<data element_type="f32" shape="1, 1, 1, 1" offset="311173660" size="4" />
			<output>
				<port id="0" precision="FP32">
					<dim>1</dim>
					<dim>1</dim>
					<dim>1</dim>
					<dim>1</dim>
				</port>
			</output>
		</layer>
		<layer id="107" name="Constant_77149" type="Const" version="opset1">
			<data element_type="f32" shape="1, 1, 1, 1" offset="311173664" size="4" />
			<output>
				<port id="0" precision="FP32">
					<dim>1</dim>
					<dim>1</dim>
					<dim>1</dim>
					<dim>1</dim>
				</port>
			</output>
		</layer>
		<layer id="108" name="__module.model.layers.0.self_attn.k_norm/aten::pow/Power" type="Power" version="opset1">
			<data auto_broadcast="numpy" />
			<input>
				<port id="0" precision="FP32">
					<dim>-1</dim>
					<dim>-1</dim>
					<dim>8</dim>
					<dim>128</dim>
				</port>
				<port id="1" precision="FP32">
					<dim>1</dim>
					<dim>1</dim>
					<dim>1</dim>
					<dim>1</dim>
				</port>
			</input>
			<output>
				<port id="2" precision="FP32" names="404">
					<dim>-1</dim>
					<dim>-1</dim>
					<dim>8</dim>
					<dim>128</dim>
				</port>
			</output>
		</layer>
		<layer id="109" name="Constant_555" type="Const" version="opset1">
			<data element_type="i64" shape="1" offset="311173668" size="8" />
			<output>
				<port id="0" precision="I64" names="405">
					<dim>1</dim>
				</port>
			</output>
		</layer>
		<layer id="110" name="__module.model.layers.0.self_attn.k_norm/aten::mean/ReduceMean" type="ReduceMean" version="opset1">
			<data keep_dims="true" />
			<input>
				<port id="0" precision="FP32">
					<dim>-1</dim>
					<dim>-1</dim>
					<dim>8</dim>
					<dim>128</dim>
				</port>
				<port id="1" precision="I64">
					<dim>1</dim>
				</port>
			</input>
			<output>
				<port id="2" precision="FP32" names="406,variance.5">
					<dim>-1</dim>
					<dim>-1</dim>
					<dim>8</dim>
					<dim>1</dim>
				</port>
			</output>
		</layer>
		<layer id="111" name="Constant_77150" type="Const" version="opset1">
			<data element_type="f32" shape="1, 1, 1, 1" offset="311173676" size="4" />
			<output>
				<port id="0" precision="FP32">
					<dim>1</dim>
					<dim>1</dim>
					<dim>1</dim>
					<dim>1</dim>
				</port>
			</output>
		</layer>
		<layer id="112" name="__module.model.layers.0.self_attn.k_norm/aten::add/Add" type="Add" version="opset1">
			<data auto_broadcast="numpy" />
			<input>
				<port id="0" precision="FP32">
					<dim>-1</dim>
					<dim>-1</dim>
					<dim>8</dim>
					<dim>1</dim>
				</port>
				<port id="1" precision="FP32">
					<dim>1</dim>
					<dim>1</dim>
					<dim>1</dim>
					<dim>1</dim>
				</port>
			</input>
			<output>
				<port id="2" precision="FP32" names="407">
					<dim>-1</dim>
					<dim>-1</dim>
					<dim>8</dim>
					<dim>1</dim>
				</port>
			</output>
		</layer>
		<layer id="113" name="__module.model.layers.0.self_attn.k_norm/aten::rsqrt/Sqrt" type="Sqrt" version="opset1">
			<input>
				<port id="0" precision="FP32">
					<dim>-1</dim>
					<dim>-1</dim>
					<dim>8</dim>
					<dim>1</dim>
				</port>
			</input>
			<output>
				<port id="1" precision="FP32">
					<dim>-1</dim>
					<dim>-1</dim>
					<dim>8</dim>
					<dim>1</dim>
				</port>
			</output>
		</layer>
		<layer id="114" name="__module.model.layers.0.self_attn.k_norm/aten::rsqrt/Divide" type="Divide" version="opset1">
			<data auto_broadcast="numpy" m_pythondiv="true" />
			<input>
				<port id="0" precision="FP32">
					<dim>1</dim>
					<dim>1</dim>
					<dim>1</dim>
					<dim>1</dim>
				</port>
				<port id="1" precision="FP32">
					<dim>-1</dim>
					<dim>-1</dim>
					<dim>8</dim>
					<dim>1</dim>
				</port>
			</input>
			<output>
				<port id="2" precision="FP32" names="408">
					<dim>-1</dim>
					<dim>-1</dim>
					<dim>8</dim>
					<dim>1</dim>
				</port>
			</output>
		</layer>
		<layer id="115" name="__module.model.layers.0.self_attn.k_norm/aten::mul/Multiply" type="Multiply" version="opset1">
			<data auto_broadcast="numpy" />
			<input>
				<port id="0" precision="FP32">
					<dim>-1</dim>
					<dim>-1</dim>
					<dim>8</dim>
					<dim>128</dim>
				</port>
				<port id="1" precision="FP32">
					<dim>-1</dim>
					<dim>-1</dim>
					<dim>8</dim>
					<dim>1</dim>
				</port>
			</input>
			<output>
				<port id="2" precision="FP32" names="409,410,hidden_states.21,hidden_states.23">
					<dim>-1</dim>
					<dim>-1</dim>
					<dim>8</dim>
					<dim>128</dim>
				</port>
			</output>
		</layer>
		<layer id="116" name="__module.model.layers.0.self_attn.k_norm/aten::mul/Multiply_1" type="Multiply" version="opset1">
			<data auto_broadcast="numpy" />
			<input>
				<port id="0" precision="FP32">
					<dim>1</dim>
					<dim>1</dim>
					<dim>1</dim>
					<dim>128</dim>
				</port>
				<port id="1" precision="FP32">
					<dim>-1</dim>
					<dim>-1</dim>
					<dim>8</dim>
					<dim>128</dim>
				</port>
			</input>
			<output>
				<port id="2" precision="FP32" names="411">
					<dim>-1</dim>
					<dim>-1</dim>
					<dim>8</dim>
					<dim>128</dim>
				</port>
			</output>
		</layer>
		<layer id="117" name="__module.model.layers.0.self_attn/aten::transpose/Constant_1" type="Const" version="opset1">
			<data element_type="i32" shape="4" offset="315368016" size="16" />
			<output>
				<port id="0" precision="I32">
					<dim>4</dim>
				</port>
			</output>
		</layer>
		<layer id="118" name="__module.model.layers.0.self_attn/aten::transpose/Transpose_1" type="Transpose" version="opset1">
			<input>
				<port id="0" precision="FP32">
					<dim>-1</dim>
					<dim>-1</dim>
					<dim>8</dim>
					<dim>128</dim>
				</port>
				<port id="1" precision="I32">
					<dim>4</dim>
				</port>
			</input>
			<output>
				<port id="2" precision="FP32" names="412,k.1">
					<dim>-1</dim>
					<dim>8</dim>
					<dim>-1</dim>
					<dim>128</dim>
				</port>
			</output>
		</layer>
		<layer id="119" name="__module.model.layers.0.self_attn/aten::mul/Multiply_2" type="Multiply" version="opset1">
			<data auto_broadcast="numpy" />
			<input>
				<port id="0" precision="FP32">
					<dim>-1</dim>
					<dim>8</dim>
					<dim>-1</dim>
					<dim>128</dim>
				</port>
				<port id="1" precision="FP32">
					<dim>-1</dim>
					<dim>1</dim>
					<dim>-1</dim>
					<dim>128</dim>
				</port>
			</input>
			<output>
				<port id="2" precision="FP32" names="436">
					<dim>-1</dim>
					<dim>8</dim>
					<dim>-1</dim>
					<dim>128</dim>
				</port>
			</output>
		</layer>
		<layer id="120" name="Constant_926" type="Const" version="opset1">
			<data element_type="i64" shape="1" offset="315368308" size="8" />
			<output>
				<port id="0" precision="I64">
					<dim>1</dim>
				</port>
			</output>
		</layer>
		<layer id="121" name="Constant_928" type="Const" version="opset1">
			<data element_type="i64" shape="1" offset="315368316" size="8" />
			<output>
				<port id="0" precision="I64">
					<dim>1</dim>
				</port>
			</output>
		</layer>
		<layer id="122" name="Constant_930" type="Const" version="opset1">
			<data element_type="i64" shape="1" offset="315368288" size="8" />
			<output>
				<port id="0" precision="I64">
					<dim>1</dim>
				</port>
			</output>
		</layer>
		<layer id="123" name="Constant_882" type="Const" version="opset1">
			<data element_type="i64" shape="1" offset="315368324" size="8" />
			<output>
				<port id="0" precision="I64">
					<dim>1</dim>
				</port>
			</output>
		</layer>
		<layer id="124" name="__module.model.layers.0.self_attn/aten::slice/Slice_2" type="Slice" version="opset8">
			<input>
				<port id="0" precision="FP32">
					<dim>-1</dim>
					<dim>8</dim>
					<dim>-1</dim>
					<dim>128</dim>
				</port>
				<port id="1" precision="I64">
					<dim>1</dim>
				</port>
				<port id="2" precision="I64">
					<dim>1</dim>
				</port>
				<port id="3" precision="I64">
					<dim>1</dim>
				</port>
				<port id="4" precision="I64">
					<dim>1</dim>
				</port>
			</input>
			<output>
				<port id="5" precision="FP32" names="446,x2.3">
					<dim>-1</dim>
					<dim>8</dim>
					<dim>-1</dim>
					<dim>64</dim>
				</port>
			</output>
		</layer>
		<layer id="125" name="__module.model.layers.0.self_attn/aten::neg/Constant_1" type="Const" version="opset1">
			<data element_type="i32" shape="" offset="315368332" size="4" />
			<output>
				<port id="0" precision="I32" />
			</output>
		</layer>
		<layer id="126" name="__module.model.layers.0.self_attn/aten::neg/ConvertLike_1" type="Convert" version="opset1">
			<data destination_type="f32" />
			<input>
				<port id="0" precision="I32" />
			</input>
			<output>
				<port id="1" precision="FP32" />
			</output>
		</layer>
		<layer id="127" name="__module.model.layers.0.self_attn/aten::neg/Multiply_1" type="Multiply" version="opset1">
			<data auto_broadcast="numpy" />
			<input>
				<port id="0" precision="FP32">
					<dim>-1</dim>
					<dim>8</dim>
					<dim>-1</dim>
					<dim>64</dim>
				</port>
				<port id="1" precision="FP32" />
			</input>
			<output>
				<port id="2" precision="FP32" names="447">
					<dim>-1</dim>
					<dim>8</dim>
					<dim>-1</dim>
					<dim>64</dim>
				</port>
			</output>
		</layer>
		<layer id="128" name="Constant_823" type="Const" version="opset1">
			<data element_type="i64" shape="1" offset="4" size="8" />
			<output>
				<port id="0" precision="I64">
					<dim>1</dim>
				</port>
			</output>
		</layer>
		<layer id="129" name="Constant_867" type="Const" version="opset1">
			<data element_type="i64" shape="1" offset="315368308" size="8" />
			<output>
				<port id="0" precision="I64">
					<dim>1</dim>
				</port>
			</output>
		</layer>
		<layer id="130" name="Constant_869" type="Const" version="opset1">
			<data element_type="i64" shape="1" offset="315368288" size="8" />
			<output>
				<port id="0" precision="I64">
					<dim>1</dim>
				</port>
			</output>
		</layer>
		<layer id="131" name="Constant_821" type="Const" version="opset1">
			<data element_type="i64" shape="1" offset="315368324" size="8" />
			<output>
				<port id="0" precision="I64">
					<dim>1</dim>
				</port>
			</output>
		</layer>
		<layer id="132" name="__module.model.layers.0.self_attn/aten::slice/Slice_3" type="Slice" version="opset8">
			<input>
				<port id="0" precision="FP32">
					<dim>-1</dim>
					<dim>8</dim>
					<dim>-1</dim>
					<dim>128</dim>
				</port>
				<port id="1" precision="I64">
					<dim>1</dim>
				</port>
				<port id="2" precision="I64">
					<dim>1</dim>
				</port>
				<port id="3" precision="I64">
					<dim>1</dim>
				</port>
				<port id="4" precision="I64">
					<dim>1</dim>
				</port>
			</input>
			<output>
				<port id="5" precision="FP32" names="441,x1.3">
					<dim>-1</dim>
					<dim>8</dim>
					<dim>-1</dim>
					<dim>64</dim>
				</port>
			</output>
		</layer>
		<layer id="133" name="__module.model.layers.0.self_attn/aten::cat/Concat_1" type="Concat" version="opset1">
			<data axis="-1" />
			<input>
				<port id="0" precision="FP32">
					<dim>-1</dim>
					<dim>8</dim>
					<dim>-1</dim>
					<dim>64</dim>
				</port>
				<port id="1" precision="FP32">
					<dim>-1</dim>
					<dim>8</dim>
					<dim>-1</dim>
					<dim>64</dim>
				</port>
			</input>
			<output>
				<port id="2" precision="FP32" names="449">
					<dim>-1</dim>
					<dim>8</dim>
					<dim>-1</dim>
					<dim>128</dim>
				</port>
			</output>
		</layer>
		<layer id="134" name="__module.model.layers.0.self_attn/aten::mul/Multiply_3" type="Multiply" version="opset1">
			<data auto_broadcast="numpy" />
			<input>
				<port id="0" precision="FP32">
					<dim>-1</dim>
					<dim>8</dim>
					<dim>-1</dim>
					<dim>128</dim>
				</port>
				<port id="1" precision="FP32">
					<dim>-1</dim>
					<dim>1</dim>
					<dim>-1</dim>
					<dim>128</dim>
				</port>
			</input>
			<output>
				<port id="2" precision="FP32" names="450">
					<dim>-1</dim>
					<dim>8</dim>
					<dim>-1</dim>
					<dim>128</dim>
				</port>
			</output>
		</layer>
		<layer id="135" name="__module.model.layers.0.self_attn/aten::add/Add_1" type="Add" version="opset1">
			<data auto_broadcast="numpy" />
			<input>
				<port id="0" precision="FP32">
					<dim>-1</dim>
					<dim>8</dim>
					<dim>-1</dim>
					<dim>128</dim>
				</port>
				<port id="1" precision="FP32">
					<dim>-1</dim>
					<dim>8</dim>
					<dim>-1</dim>
					<dim>128</dim>
				</port>
			</input>
			<output>
				<port id="2" precision="FP32" names="451,key_states.1">
					<dim>-1</dim>
					<dim>8</dim>
					<dim>-1</dim>
					<dim>128</dim>
				</port>
			</output>
		</layer>
		<layer id="136" name="__module.model.layers.0.self_attn/aten::cat/Concat_2" type="Concat" version="opset1">
			<data axis="-2" />
			<input>
				<port id="0" precision="FP32">
					<dim>-1</dim>
					<dim>8</dim>
					<dim>-1</dim>
					<dim>128</dim>
				</port>
				<port id="1" precision="FP32">
					<dim>-1</dim>
					<dim>8</dim>
					<dim>-1</dim>
					<dim>128</dim>
				</port>
			</input>
			<output>
				<port id="2" precision="FP32" names="461,462,hidden_states.25">
					<dim>-1</dim>
					<dim>8</dim>
					<dim>-1</dim>
					<dim>128</dim>
				</port>
			</output>
		</layer>
		<layer id="137" name="220" type="Const" version="opset1">
			<data element_type="i64" shape="" offset="317466032" size="8" />
			<output>
				<port id="0" precision="I64" names="220" />
			</output>
		</layer>
		<layer id="138" name="__module.model.layers.0.self_attn/aten::unsqueeze/Unsqueeze_2" type="Unsqueeze" version="opset1">
			<input>
				<port id="0" precision="FP32">
					<dim>-1</dim>
					<dim>8</dim>
					<dim>-1</dim>
					<dim>128</dim>
				</port>
				<port id="1" precision="I64" />
			</input>
			<output>
				<port id="2" precision="FP32" names="463,464,465">
					<dim>-1</dim>
					<dim>8</dim>
					<dim>1</dim>
					<dim>-1</dim>
					<dim>128</dim>
				</port>
			</output>
		</layer>
		<layer id="139" name="__module.model.layers.0.self_attn/aten::size/ShapeOf_2" type="ShapeOf" version="opset3">
			<data output_type="i64" />
			<input>
				<port id="0" precision="FP32">
					<dim>-1</dim>
					<dim>8</dim>
					<dim>-1</dim>
					<dim>128</dim>
				</port>
			</input>
			<output>
				<port id="1" precision="I64">
					<dim>4</dim>
				</port>
			</output>
		</layer>
		<layer id="140" name="Constant_70691" type="Const" version="opset1">
			<data element_type="i64" shape="2" offset="317466040" size="16" />
			<output>
				<port id="0" precision="I64">
					<dim>2</dim>
				</port>
			</output>
		</layer>
		<layer id="141" name="Constant_70692" type="Const" version="opset1">
			<data element_type="i64" shape="" offset="4" size="8" />
			<output>
				<port id="0" precision="I64" />
			</output>
		</layer>
		<layer id="142" name="Gather_70693" type="Gather" version="opset8">
			<data batch_dims="0" />
			<input>
				<port id="0" precision="I64">
					<dim>4</dim>
				</port>
				<port id="1" precision="I64">
					<dim>2</dim>
				</port>
				<port id="2" precision="I64" />
			</input>
			<output>
				<port id="3" precision="I64">
					<dim>2</dim>
				</port>
			</output>
		</layer>
		<layer id="143" name="Constant_68489" type="Const" version="opset1">
			<data element_type="i64" shape="1" offset="317466032" size="8" />
			<output>
				<port id="0" precision="I64">
					<dim>1</dim>
				</port>
			</output>
		</layer>
		<layer id="144" name="ShapeOf_79169" type="ShapeOf" version="opset3">
			<data output_type="i64" />
			<input>
				<port id="0" precision="FP32">
					<dim>-1</dim>
					<dim>8</dim>
					<dim>-1</dim>
					<dim>128</dim>
				</port>
			</input>
			<output>
				<port id="1" precision="I64">
					<dim>4</dim>
				</port>
			</output>
		</layer>
		<layer id="145" name="Constant_79170" type="Const" version="opset1">
			<data element_type="i64" shape="" offset="317466032" size="8" />
			<output>
				<port id="0" precision="I64" />
			</output>
		</layer>
		<layer id="146" name="Constant_79171" type="Const" version="opset1">
			<data element_type="i64" shape="" offset="4" size="8" />
			<output>
				<port id="0" precision="I64" />
			</output>
		</layer>
		<layer id="147" name="Gather_79172" type="Gather" version="opset8">
			<data batch_dims="0" />
			<input>
				<port id="0" precision="I64">
					<dim>4</dim>
				</port>
				<port id="1" precision="I64" />
				<port id="2" precision="I64" />
			</input>
			<output>
				<port id="3" precision="I64" names="282,292" />
			</output>
		</layer>
		<layer id="148" name="Constant_79190" type="Const" version="opset1">
			<data element_type="i64" shape="1" offset="315368288" size="8" />
			<output>
				<port id="0" precision="I64">
					<dim>1</dim>
				</port>
			</output>
		</layer>
		<layer id="149" name="Reshape_79191" type="Reshape" version="opset1">
			<data special_zero="false" />
			<input>
				<port id="0" precision="I64" />
				<port id="1" precision="I64">
					<dim>1</dim>
				</port>
			</input>
			<output>
				<port id="2" precision="I64">
					<dim>1</dim>
				</port>
			</output>
		</layer>
		<layer id="150" name="Constant_79178" type="Const" version="opset1">
			<data element_type="i64" shape="" offset="315368288" size="8" />
			<output>
				<port id="0" precision="I64" />
			</output>
		</layer>
		<layer id="151" name="Constant_79179" type="Const" version="opset1">
			<data element_type="i64" shape="" offset="4" size="8" />
			<output>
				<port id="0" precision="I64" />
			</output>
		</layer>
		<layer id="152" name="Gather_79180" type="Gather" version="opset8">
			<data batch_dims="0" />
			<input>
				<port id="0" precision="I64">
					<dim>3</dim>
				</port>
				<port id="1" precision="I64" />
				<port id="2" precision="I64" />
			</input>
			<output>
				<port id="3" precision="I64" names="284" />
			</output>
		</layer>
		<layer id="153" name="Constant_79192" type="Const" version="opset1">
			<data element_type="i64" shape="1" offset="315368288" size="8" />
			<output>
				<port id="0" precision="I64">
					<dim>1</dim>
				</port>
			</output>
		</layer>
		<layer id="154" name="Reshape_79193" type="Reshape" version="opset1">
			<data special_zero="false" />
			<input>
				<port id="0" precision="I64" />
				<port id="1" precision="I64">
					<dim>1</dim>
				</port>
			</input>
			<output>
				<port id="2" precision="I64">
					<dim>1</dim>
				</port>
			</output>
		</layer>
		<layer id="155" name="Add_79194" type="Add" version="opset1">
			<data auto_broadcast="numpy" />
			<input>
				<port id="0" precision="I64">
					<dim>1</dim>
				</port>
				<port id="1" precision="I64">
					<dim>1</dim>
				</port>
			</input>
			<output>
				<port id="2" precision="I64" names="1019,1167,1196,1344,1373,1521,1550,1698,1727,1875,1904,2052,2081,2229,2258,2406,2435,2583,2612,2760,2789,2937,2966,3114,3143,3291,3320,3468,3497,3645,3674,3822,3851,3999,4028,4176,4205,4353,4382,4530,4559,459,4707,4736,488,4884,4913,5061,5090,5238,5267,636,665,813,842,990">
					<dim>1</dim>
				</port>
			</output>
		</layer>
		<layer id="156" name="Constant_68492" type="Const" version="opset1">
			<data element_type="i64" shape="1" offset="20" size="8" />
			<output>
				<port id="0" precision="I64">
					<dim>1</dim>
				</port>
			</output>
		</layer>
		<layer id="157" name="__module.model.layers.0.self_attn/prim::ListConstruct_2" type="Concat" version="opset1">
			<data axis="0" />
			<input>
				<port id="0" precision="I64">
					<dim>2</dim>
				</port>
				<port id="1" precision="I64">
					<dim>1</dim>
				</port>
				<port id="2" precision="I64">
					<dim>1</dim>
				</port>
				<port id="3" precision="I64">
					<dim>1</dim>
				</port>
			</input>
			<output>
				<port id="4" precision="I64">
					<dim>5</dim>
				</port>
			</output>
		</layer>
		<layer id="158" name="__module.model.layers.0.self_attn/aten::expand/Broadcast" type="Broadcast" version="opset3">
			<data mode="bidirectional" />
			<input>
				<port id="0" precision="FP32">
					<dim>-1</dim>
					<dim>8</dim>
					<dim>1</dim>
					<dim>-1</dim>
					<dim>128</dim>
				</port>
				<port id="1" precision="I64">
					<dim>5</dim>
				</port>
			</input>
			<output>
				<port id="2" precision="FP32" names="467,hidden_states.27">
					<dim>-1</dim>
					<dim>8</dim>
					<dim>2</dim>
					<dim>-1</dim>
					<dim>128</dim>
				</port>
			</output>
		</layer>
		<layer id="159" name="Constant_85878" type="Const" version="opset1">
			<data element_type="i64" shape="4" offset="317466056" size="32" />
			<output>
				<port id="0" precision="I64">
					<dim>4</dim>
				</port>
			</output>
		</layer>
		<layer id="160" name="__module.model.layers.0.self_attn/aten::reshape/Reshape" type="Reshape" version="opset1">
			<data special_zero="true" />
			<input>
				<port id="0" precision="FP32">
					<dim>-1</dim>
					<dim>8</dim>
					<dim>2</dim>
					<dim>-1</dim>
					<dim>128</dim>
				</port>
				<port id="1" precision="I64">
					<dim>4</dim>
				</port>
			</input>
			<output>
				<port id="2" precision="FP32" names="471,key.1">
					<dim>-1</dim>
					<dim>16</dim>
					<dim>-1</dim>
					<dim>128</dim>
				</port>
			</output>
		</layer>
		<layer id="161" name="Constant_88638" type="Const" version="opset1">
			<data element_type="f32" shape="" offset="0" size="4" />
			<output>
				<port id="0" precision="FP32" />
			</output>
		</layer>
		<layer id="162" name="Constant_88631" type="Const" version="opset1">
			<data element_type="i64" shape="1" offset="12" size="8" />
			<output>
				<port id="0" precision="I64">
					<dim>1</dim>
				</port>
			</output>
		</layer>
		<layer id="163" name="Constant_88633" type="Const" version="opset1">
			<data element_type="i64" shape="1" offset="4" size="8" />
			<output>
				<port id="0" precision="I64">
					<dim>1</dim>
				</port>
			</output>
		</layer>
		<layer id="164" name="Constant_88635" type="Const" version="opset1">
			<data element_type="i64" shape="1" offset="20" size="8" />
			<output>
				<port id="0" precision="I64">
					<dim>1</dim>
				</port>
			</output>
		</layer>
		<layer id="165" name="Concat_88636" type="Concat" version="opset1">
			<data axis="0" />
			<input>
				<port id="0" precision="I64">
					<dim>1</dim>
				</port>
				<port id="1" precision="I64">
					<dim>1</dim>
				</port>
				<port id="2" precision="I64">
					<dim>1</dim>
				</port>
				<port id="3" precision="I64">
					<dim>1</dim>
				</port>
			</input>
			<output>
				<port id="4" precision="I64">
					<dim>4</dim>
				</port>
			</output>
		</layer>
		<layer id="166" name="Broadcast_88639" type="Broadcast" version="opset3">
			<data mode="numpy" />
			<input>
				<port id="0" precision="FP32" />
				<port id="1" precision="I64">
					<dim>4</dim>
				</port>
			</input>
			<output>
				<port id="2" precision="FP32">
					<dim>-1</dim>
					<dim>8</dim>
					<dim>0</dim>
					<dim>128</dim>
				</port>
			</output>
		</layer>
		<layer id="167" name="ReadValue_88080" type="ReadValue" version="opset6">
			<data variable_id="past_key_values.0.valuepresent.0.value" variable_type="f32" variable_shape="?,8,?,128" />
			<input>
				<port id="0" precision="FP32">
					<dim>-1</dim>
					<dim>8</dim>
					<dim>0</dim>
					<dim>128</dim>
				</port>
			</input>
			<output>
				<port id="1" precision="FP32" names="past_key_values.0.value">
					<dim>-1</dim>
					<dim>8</dim>
					<dim>-1</dim>
					<dim>128</dim>
				</port>
			</output>
		</layer>
		<layer id="168" name="Constant_87504" type="Const" version="opset1">
			<data element_type="i64" shape="" offset="4" size="8" />
			<output>
				<port id="0" precision="I64" />
			</output>
		</layer>
		<layer id="169" name="Gather_87505" type="Gather" version="opset8">
			<data batch_dims="0" />
			<input>
				<port id="0" precision="FP32">
					<dim>-1</dim>
					<dim>8</dim>
					<dim>-1</dim>
					<dim>128</dim>
				</port>
				<port id="1" precision="I32">
					<dim>-1</dim>
				</port>
				<port id="2" precision="I64" />
			</input>
			<output>
				<port id="3" precision="FP32">
					<dim>-1</dim>
					<dim>8</dim>
					<dim>-1</dim>
					<dim>128</dim>
				</port>
			</output>
		</layer>
		<layer id="170" name="self.model.layers.0.self_attn.v_proj.weight" type="Const" version="opset1">
			<data element_type="bf16" shape="1024, 1024" offset="317466088" size="2097152" />
			<output>
				<port id="0" precision="BF16" names="self.model.layers.0.self_attn.v_proj.weight">
					<dim>1024</dim>
					<dim>1024</dim>
				</port>
			</output>
		</layer>
		<layer id="171" name="__module.model.layers.0.self_attn.v_proj/ov_ext::linear/Convert" type="Convert" version="opset1">
			<data destination_type="f32" />
			<rt_info>
				<attribute name="decompression" version="0" />
			</rt_info>
			<input>
				<port id="0" precision="BF16">
					<dim>1024</dim>
					<dim>1024</dim>
				</port>
			</input>
			<output>
				<port id="1" precision="FP32">
					<dim>1024</dim>
					<dim>1024</dim>
				</port>
			</output>
		</layer>
		<layer id="172" name="__module.model.layers.0.self_attn.v_proj/ov_ext::linear/MatMul" type="MatMul" version="opset1">
			<data transpose_a="false" transpose_b="true" />
			<input>
				<port id="0" precision="FP32">
					<dim>-1</dim>
					<dim>-1</dim>
					<dim>1024</dim>
				</port>
				<port id="1" precision="FP32">
					<dim>1024</dim>
					<dim>1024</dim>
				</port>
			</input>
			<output>
				<port id="2" precision="FP32" names="414">
					<dim>-1</dim>
					<dim>-1</dim>
					<dim>1024</dim>
				</port>
			</output>
		</layer>
		<layer id="173" name="Constant_85879" type="Const" version="opset1">
			<data element_type="i64" shape="4" offset="317466000" size="32" />
			<output>
				<port id="0" precision="I64">
					<dim>4</dim>
				</port>
			</output>
		</layer>
		<layer id="174" name="__module.model.layers.0.self_attn/aten::view/Reshape_2" type="Reshape" version="opset1">
			<data special_zero="true" />
			<input>
				<port id="0" precision="FP32">
					<dim>-1</dim>
					<dim>-1</dim>
					<dim>1024</dim>
				</port>
				<port id="1" precision="I64">
					<dim>4</dim>
				</port>
			</input>
			<output>
				<port id="2" precision="FP32" names="416">
					<dim>-1</dim>
					<dim>-1</dim>
					<dim>8</dim>
					<dim>128</dim>
				</port>
			</output>
		</layer>
		<layer id="175" name="__module.model.layers.0.self_attn/aten::transpose/Constant_2" type="Const" version="opset1">
			<data element_type="i32" shape="4" offset="315368016" size="16" />
			<output>
				<port id="0" precision="I32">
					<dim>4</dim>
				</port>
			</output>
		</layer>
		<layer id="176" name="__module.model.layers.0.self_attn/aten::transpose/Transpose_2" type="Transpose" version="opset1">
			<input>
				<port id="0" precision="FP32">
					<dim>-1</dim>
					<dim>-1</dim>
					<dim>8</dim>
					<dim>128</dim>
				</port>
				<port id="1" precision="I32">
					<dim>4</dim>
				</port>
			</input>
			<output>
				<port id="2" precision="FP32" names="417,value_states.1">
					<dim>-1</dim>
					<dim>8</dim>
					<dim>-1</dim>
					<dim>128</dim>
				</port>
			</output>
		</layer>
		<layer id="177" name="__module.model.layers.0.self_attn/aten::cat/Concat_3" type="Concat" version="opset1">
			<data axis="-2" />
			<input>
				<port id="0" precision="FP32">
					<dim>-1</dim>
					<dim>8</dim>
					<dim>-1</dim>
					<dim>128</dim>
				</port>
				<port id="1" precision="FP32">
					<dim>-1</dim>
					<dim>8</dim>
					<dim>-1</dim>
					<dim>128</dim>
				</port>
			</input>
			<output>
				<port id="2" precision="FP32" names="477,478,hidden_states.29">
					<dim>-1</dim>
					<dim>8</dim>
					<dim>-1</dim>
					<dim>128</dim>
				</port>
			</output>
		</layer>
		<layer id="178" name="__module.model.layers.0.self_attn/aten::unsqueeze/Unsqueeze_3" type="Unsqueeze" version="opset1">
			<input>
				<port id="0" precision="FP32">
					<dim>-1</dim>
					<dim>8</dim>
					<dim>-1</dim>
					<dim>128</dim>
				</port>
				<port id="1" precision="I64" />
			</input>
			<output>
				<port id="2" precision="FP32" names="479,480,481">
					<dim>-1</dim>
					<dim>8</dim>
					<dim>1</dim>
					<dim>-1</dim>
					<dim>128</dim>
				</port>
			</output>
		</layer>
		<layer id="179" name="__module.model.layers.0.self_attn/aten::expand/Broadcast_1" type="Broadcast" version="opset3">
			<data mode="bidirectional" />
			<input>
				<port id="0" precision="FP32">
					<dim>-1</dim>
					<dim>8</dim>
					<dim>1</dim>
					<dim>-1</dim>
					<dim>128</dim>
				</port>
				<port id="1" precision="I64">
					<dim>5</dim>
				</port>
			</input>
			<output>
				<port id="2" precision="FP32" names="483,hidden_states.31">
					<dim>-1</dim>
					<dim>8</dim>
					<dim>2</dim>
					<dim>-1</dim>
					<dim>128</dim>
				</port>
			</output>
		</layer>
		<layer id="180" name="Constant_85880" type="Const" version="opset1">
			<data element_type="i64" shape="4" offset="317466056" size="32" />
			<output>
				<port id="0" precision="I64">
					<dim>4</dim>
				</port>
			</output>
		</layer>
		<layer id="181" name="__module.model.layers.0.self_attn/aten::reshape/Reshape_1" type="Reshape" version="opset1">
			<data special_zero="true" />
			<input>
				<port id="0" precision="FP32">
					<dim>-1</dim>
					<dim>8</dim>
					<dim>2</dim>
					<dim>-1</dim>
					<dim>128</dim>
				</port>
				<port id="1" precision="I64">
					<dim>4</dim>
				</port>
			</input>
			<output>
				<port id="2" precision="FP32" names="487,value.1">
					<dim>-1</dim>
					<dim>16</dim>
					<dim>-1</dim>
					<dim>128</dim>
				</port>
			</output>
		</layer>
		<layer id="182" name="__module.model/aten::new_ones/Broadcast" type="Const" version="opset1">
			<data element_type="boolean" shape="" offset="319563240" size="1" />
			<output>
				<port id="0" precision="BOOL" names="315,result.1" />
			</output>
		</layer>
		<layer id="183" name="__module.model/aten::arange/Constant" type="Const" version="opset1">
			<data element_type="i32" shape="" offset="0" size="4" />
			<output>
				<port id="0" precision="I32" />
			</output>
		</layer>
		<layer id="184" name="__module.model/aten::size/Constant_3" type="Const" version="opset1">
			<data element_type="i32" shape="" offset="0" size="4" />
			<output>
				<port id="0" precision="I32" />
			</output>
		</layer>
		<layer id="185" name="__module.model/aten::size/Gather_3" type="Squeeze" version="opset1">
			<input>
				<port id="0" precision="I64">
					<dim>1</dim>
				</port>
				<port id="1" precision="I32" />
			</input>
			<output>
				<port id="2" precision="I64" names="290,298" />
			</output>
		</layer>
		<layer id="186" name="__module.model/aten::add/Add_1" type="Add" version="opset1">
			<data auto_broadcast="numpy" />
			<input>
				<port id="0" precision="I64" />
				<port id="1" precision="I64" />
			</input>
			<output>
				<port id="2" precision="I64" names="294,295,kv_length" />
			</output>
		</layer>
		<layer id="187" name="__module.model/aten::arange/Constant_2" type="Const" version="opset1">
			<data element_type="i32" shape="" offset="319563241" size="4" />
			<output>
				<port id="0" precision="I32" />
			</output>
		</layer>
		<layer id="188" name="__module.model/aten::arange/Range_1" type="Range" version="opset4">
			<data output_type="i64" />
			<input>
				<port id="0" precision="I32" />
				<port id="1" precision="I64" />
				<port id="2" precision="I32" />
			</input>
			<output>
				<port id="3" precision="I64" names="308">
					<dim>-1</dim>
				</port>
			</output>
		</layer>
		<layer id="189" name="214" type="Const" version="opset1">
			<data element_type="i64" shape="" offset="4" size="8" />
			<output>
				<port id="0" precision="I64" names="214" />
			</output>
		</layer>
		<layer id="190" name="__module.model/aten::unsqueeze/Unsqueeze" type="Unsqueeze" version="opset1">
			<input>
				<port id="0" precision="I64">
					<dim>-1</dim>
				</port>
				<port id="1" precision="I64" />
			</input>
			<output>
				<port id="2" precision="I64" names="309">
					<dim>1</dim>
					<dim>-1</dim>
				</port>
			</output>
		</layer>
		<layer id="191" name="__module.model/aten::unsqueeze/Unsqueeze_1" type="Unsqueeze" version="opset1">
			<input>
				<port id="0" precision="I64">
					<dim>1</dim>
					<dim>-1</dim>
				</port>
				<port id="1" precision="I64" />
			</input>
			<output>
				<port id="2" precision="I64" names="310">
					<dim>1</dim>
					<dim>1</dim>
					<dim>-1</dim>
				</port>
			</output>
		</layer>
		<layer id="192" name="__module.model/aten::unsqueeze/Unsqueeze_2" type="Unsqueeze" version="opset1">
			<input>
				<port id="0" precision="I64">
					<dim>1</dim>
					<dim>1</dim>
					<dim>-1</dim>
				</port>
				<port id="1" precision="I64" />
			</input>
			<output>
				<port id="2" precision="I64" names="311,312,313,kv_idx">
					<dim>1</dim>
					<dim>1</dim>
					<dim>1</dim>
					<dim>-1</dim>
				</port>
			</output>
		</layer>
		<layer id="193" name="__module.model/aten::add/Add" type="Add" version="opset1">
			<data auto_broadcast="numpy" />
			<input>
				<port id="0" precision="I64" />
				<port id="1" precision="I64" />
			</input>
			<output>
				<port id="2" precision="I64" names="286" />
			</output>
		</layer>
		<layer id="194" name="__module.model/aten::arange/Constant_1" type="Const" version="opset1">
			<data element_type="i32" shape="" offset="319563241" size="4" />
			<output>
				<port id="0" precision="I32" />
			</output>
		</layer>
		<layer id="195" name="__module.model/aten::arange/Range" type="Range" version="opset4">
			<data output_type="i64" />
			<input>
				<port id="0" precision="I64" />
				<port id="1" precision="I64" />
				<port id="2" precision="I32" />
			</input>
			<output>
				<port id="3" precision="I64" names="288,cache_position">
					<dim>-1</dim>
				</port>
			</output>
		</layer>
		<layer id="196" name="__module.model/aten::unsqueeze/Unsqueeze_3" type="Unsqueeze" version="opset1">
			<input>
				<port id="0" precision="I64">
					<dim>-1</dim>
				</port>
				<port id="1" precision="I64" />
			</input>
			<output>
				<port id="2" precision="I64" names="299">
					<dim>1</dim>
					<dim>-1</dim>
				</port>
			</output>
		</layer>
		<layer id="197" name="__module.model/aten::unsqueeze/Unsqueeze_4" type="Unsqueeze" version="opset1">
			<input>
				<port id="0" precision="I64">
					<dim>1</dim>
					<dim>-1</dim>
				</port>
				<port id="1" precision="I64" />
			</input>
			<output>
				<port id="2" precision="I64" names="300,301">
					<dim>1</dim>
					<dim>1</dim>
					<dim>-1</dim>
				</port>
			</output>
		</layer>
		<layer id="198" name="212" type="Const" version="opset1">
			<data element_type="i64" shape="" offset="315368324" size="8" />
			<output>
				<port id="0" precision="I64" names="212" />
			</output>
		</layer>
		<layer id="199" name="__module.model/aten::unsqueeze/Unsqueeze_5" type="Unsqueeze" version="opset1">
			<input>
				<port id="0" precision="I64">
					<dim>1</dim>
					<dim>1</dim>
					<dim>-1</dim>
				</port>
				<port id="1" precision="I64" />
			</input>
			<output>
				<port id="2" precision="I64" names="302,q_idx">
					<dim>1</dim>
					<dim>1</dim>
					<dim>-1</dim>
					<dim>1</dim>
				</port>
			</output>
		</layer>
		<layer id="200" name="__module.model/aten::le/LessEqual" type="LessEqual" version="opset1">
			<data auto_broadcast="numpy" />
			<input>
				<port id="0" precision="I64">
					<dim>1</dim>
					<dim>1</dim>
					<dim>1</dim>
					<dim>-1</dim>
				</port>
				<port id="1" precision="I64">
					<dim>1</dim>
					<dim>1</dim>
					<dim>-1</dim>
					<dim>1</dim>
				</port>
			</input>
			<output>
				<port id="2" precision="BOOL" names="316,317">
					<dim>1</dim>
					<dim>1</dim>
					<dim>-1</dim>
					<dim>-1</dim>
				</port>
			</output>
		</layer>
		<layer id="201" name="__module.model/aten::__and__/BitwiseAnd" type="BitwiseAnd" version="opset13">
			<data auto_broadcast="numpy" />
			<input>
				<port id="0" precision="BOOL" />
				<port id="1" precision="BOOL">
					<dim>1</dim>
					<dim>1</dim>
					<dim>-1</dim>
					<dim>-1</dim>
				</port>
			</input>
			<output>
				<port id="2" precision="BOOL" names="318,result">
					<dim>1</dim>
					<dim>1</dim>
					<dim>-1</dim>
					<dim>-1</dim>
				</port>
			</output>
		</layer>
		<layer id="202" name="__module.model/aten::to/Convert_1" type="Convert" version="opset1">
			<data destination_type="boolean" />
			<input>
				<port id="0" precision="I64">
					<dim>-1</dim>
					<dim>-1</dim>
				</port>
			</input>
			<output>
				<port id="1" precision="BOOL" names="289,attention_mask.3">
					<dim>-1</dim>
					<dim>-1</dim>
				</port>
			</output>
		</layer>
		<layer id="203" name="__module.model/aten::index/ShapeOf_1" type="ShapeOf" version="opset3">
			<data output_type="i32" />
			<input>
				<port id="0" precision="BOOL">
					<dim>-1</dim>
					<dim>-1</dim>
				</port>
			</input>
			<output>
				<port id="1" precision="I32">
					<dim>2</dim>
				</port>
			</output>
		</layer>
		<layer id="204" name="Constant_33999" type="Const" version="opset1">
			<data element_type="i32" shape="" offset="0" size="4" />
			<output>
				<port id="0" precision="I32" />
			</output>
		</layer>
		<layer id="205" name="__module.model/aten::index/ReduceProd" type="ReduceProd" version="opset1">
			<data keep_dims="true" />
			<input>
				<port id="0" precision="I32">
					<dim>2</dim>
				</port>
				<port id="1" precision="I32" />
			</input>
			<output>
				<port id="2" precision="I32">
					<dim>1</dim>
				</port>
			</output>
		</layer>
		<layer id="206" name="Constant_34001" type="Const" version="opset1">
			<data element_type="i32" shape="1" offset="315368332" size="4" />
			<output>
				<port id="0" precision="I32">
					<dim>1</dim>
				</port>
			</output>
		</layer>
		<layer id="207" name="__module.model/aten::index/Concat" type="Concat" version="opset1">
			<data axis="0" />
			<input>
				<port id="0" precision="I32">
					<dim>1</dim>
				</port>
				<port id="1" precision="I32">
					<dim>1</dim>
				</port>
			</input>
			<output>
				<port id="2" precision="I32">
					<dim>2</dim>
				</port>
			</output>
		</layer>
		<layer id="208" name="__module.model/aten::index/Reshape" type="Reshape" version="opset1">
			<data special_zero="true" />
			<input>
				<port id="0" precision="BOOL">
					<dim>-1</dim>
					<dim>-1</dim>
				</port>
				<port id="1" precision="I32">
					<dim>2</dim>
				</port>
			</input>
			<output>
				<port id="2" precision="BOOL">
					<dim>-1</dim>
					<dim>-1</dim>
				</port>
			</output>
		</layer>
		<layer id="209" name="__module.model/aten::index/Convert" type="Convert" version="opset1">
			<data destination_type="i32" />
			<input>
				<port id="0" precision="I64">
					<dim>1</dim>
					<dim>1</dim>
					<dim>1</dim>
					<dim>-1</dim>
				</port>
			</input>
			<output>
				<port id="1" precision="I32">
					<dim>1</dim>
					<dim>1</dim>
					<dim>1</dim>
					<dim>-1</dim>
				</port>
			</output>
		</layer>
		<layer id="210" name="__module.model/aten::arange/Constant_3" type="Const" version="opset1">
			<data element_type="i32" shape="" offset="0" size="4" />
			<output>
				<port id="0" precision="I32" />
			</output>
		</layer>
		<layer id="211" name="Squeeze_79183" type="Squeeze" version="opset1">
			<input>
				<port id="0" precision="I64">
					<dim>1</dim>
				</port>
			</input>
			<output>
				<port id="1" precision="I64" names="297" />
			</output>
		</layer>
		<layer id="212" name="__module.model/aten::arange/Constant_4" type="Const" version="opset1">
			<data element_type="i32" shape="" offset="319563241" size="4" />
			<output>
				<port id="0" precision="I32" />
			</output>
		</layer>
		<layer id="213" name="__module.model/aten::arange/Range_2" type="Range" version="opset4">
			<data output_type="i64" />
			<input>
				<port id="0" precision="I32" />
				<port id="1" precision="I64" />
				<port id="2" precision="I32" />
			</input>
			<output>
				<port id="3" precision="I64" names="303,304">
					<dim>-1</dim>
				</port>
			</output>
		</layer>
		<layer id="214" name="__module.model/aten::unsqueeze/Unsqueeze_6" type="Unsqueeze" version="opset1">
			<input>
				<port id="0" precision="I64">
					<dim>-1</dim>
				</port>
				<port id="1" precision="I64" />
			</input>
			<output>
				<port id="2" precision="I64" names="305">
					<dim>-1</dim>
					<dim>1</dim>
				</port>
			</output>
		</layer>
		<layer id="215" name="__module.model/aten::unsqueeze/Unsqueeze_7" type="Unsqueeze" version="opset1">
			<input>
				<port id="0" precision="I64">
					<dim>-1</dim>
					<dim>1</dim>
				</port>
				<port id="1" precision="I64" />
			</input>
			<output>
				<port id="2" precision="I64" names="306">
					<dim>-1</dim>
					<dim>1</dim>
					<dim>1</dim>
				</port>
			</output>
		</layer>
		<layer id="216" name="__module.model/aten::unsqueeze/Unsqueeze_8" type="Unsqueeze" version="opset1">
			<input>
				<port id="0" precision="I64">
					<dim>-1</dim>
					<dim>1</dim>
					<dim>1</dim>
				</port>
				<port id="1" precision="I64" />
			</input>
			<output>
				<port id="2" precision="I64" names="307,batch_idx">
					<dim>-1</dim>
					<dim>1</dim>
					<dim>1</dim>
					<dim>1</dim>
				</port>
			</output>
		</layer>
		<layer id="217" name="__module.model/aten::index/Convert_3" type="Convert" version="opset1">
			<data destination_type="i32" />
			<input>
				<port id="0" precision="I64">
					<dim>-1</dim>
					<dim>1</dim>
					<dim>1</dim>
					<dim>1</dim>
				</port>
			</input>
			<output>
				<port id="1" precision="I32">
					<dim>-1</dim>
					<dim>1</dim>
					<dim>1</dim>
					<dim>1</dim>
				</port>
			</output>
		</layer>
		<layer id="218" name="__module.model/aten::index/Constant" type="Const" version="opset1">
			<data element_type="i32" shape="" offset="0" size="4" />
			<output>
				<port id="0" precision="I32" />
			</output>
		</layer>
		<layer id="219" name="__module.model/aten::index/Split" type="Split" version="opset1">
			<data num_splits="2" />
			<input>
				<port id="0" precision="I32">
					<dim>2</dim>
				</port>
				<port id="1" precision="I32" />
			</input>
			<output>
				<port id="2" precision="I32">
					<dim>1</dim>
				</port>
				<port id="3" precision="I32">
					<dim>1</dim>
				</port>
			</output>
		</layer>
		<layer id="220" name="__module.model/aten::index/Multiply" type="Multiply" version="opset1">
			<data auto_broadcast="numpy" />
			<input>
				<port id="0" precision="I32">
					<dim>-1</dim>
					<dim>1</dim>
					<dim>1</dim>
					<dim>1</dim>
				</port>
				<port id="1" precision="I32">
					<dim>1</dim>
				</port>
			</input>
			<output>
				<port id="2" precision="I32">
					<dim>-1</dim>
					<dim>1</dim>
					<dim>1</dim>
					<dim>1</dim>
				</port>
			</output>
		</layer>
		<layer id="221" name="__module.model/aten::index/Add" type="Add" version="opset1">
			<data auto_broadcast="numpy" />
			<input>
				<port id="0" precision="I32">
					<dim>1</dim>
					<dim>1</dim>
					<dim>1</dim>
					<dim>-1</dim>
				</port>
				<port id="1" precision="I32">
					<dim>-1</dim>
					<dim>1</dim>
					<dim>1</dim>
					<dim>1</dim>
				</port>
			</input>
			<output>
				<port id="2" precision="I32">
					<dim>-1</dim>
					<dim>1</dim>
					<dim>1</dim>
					<dim>-1</dim>
				</port>
			</output>
		</layer>
		<layer id="222" name="__module.model/aten::index/Gather" type="Gather" version="opset8">
			<data batch_dims="0" />
			<input>
				<port id="0" precision="BOOL">
					<dim>-1</dim>
					<dim>-1</dim>
				</port>
				<port id="1" precision="I32">
					<dim>-1</dim>
					<dim>1</dim>
					<dim>1</dim>
					<dim>-1</dim>
				</port>
				<port id="2" precision="I32" />
			</input>
			<output>
				<port id="3" precision="BOOL">
					<dim>-1</dim>
					<dim>1</dim>
					<dim>1</dim>
					<dim>-1</dim>
					<dim>-1</dim>
				</port>
			</output>
		</layer>
		<layer id="223" name="Constant_54141" type="Const" version="opset1">
			<data element_type="i64" shape="1" offset="311173668" size="8" />
			<output>
				<port id="0" precision="I64">
					<dim>1</dim>
				</port>
			</output>
		</layer>
		<layer id="224" name="__module.model/aten::index/Reshape_8" type="Reshape" version="opset1">
			<data special_zero="false" />
			<input>
				<port id="0" precision="BOOL">
					<dim>-1</dim>
					<dim>1</dim>
					<dim>1</dim>
					<dim>-1</dim>
					<dim>-1</dim>
				</port>
				<port id="1" precision="I64">
					<dim>1</dim>
				</port>
			</input>
			<output>
				<port id="2" precision="BOOL">
					<dim>-1</dim>
				</port>
			</output>
		</layer>
		<layer id="225" name="__module.model/aten::index/ShapeOf_5" type="ShapeOf" version="opset3">
			<data output_type="i32" />
			<input>
				<port id="0" precision="I32">
					<dim>-1</dim>
					<dim>1</dim>
					<dim>1</dim>
					<dim>-1</dim>
				</port>
			</input>
			<output>
				<port id="1" precision="I32">
					<dim>4</dim>
				</port>
			</output>
		</layer>
		<layer id="226" name="__module.model/aten::index/Reshape_12" type="Reshape" version="opset1">
			<data special_zero="false" />
			<input>
				<port id="0" precision="BOOL">
					<dim>-1</dim>
				</port>
				<port id="1" precision="I32">
					<dim>4</dim>
				</port>
			</input>
			<output>
				<port id="2" precision="BOOL" names="320,321">
					<dim>-1</dim>
					<dim>1</dim>
					<dim>1</dim>
					<dim>-1</dim>
				</port>
			</output>
		</layer>
		<layer id="227" name="__module.model/aten::__and__/BitwiseAnd_1" type="BitwiseAnd" version="opset13">
			<data auto_broadcast="numpy" />
			<input>
				<port id="0" precision="BOOL">
					<dim>1</dim>
					<dim>1</dim>
					<dim>-1</dim>
					<dim>-1</dim>
				</port>
				<port id="1" precision="BOOL">
					<dim>-1</dim>
					<dim>1</dim>
					<dim>1</dim>
					<dim>-1</dim>
				</port>
			</input>
			<output>
				<port id="2" precision="BOOL" names="322,causal_mask">
					<dim>-1</dim>
					<dim>1</dim>
					<dim>-1</dim>
					<dim>-1</dim>
				</port>
			</output>
		</layer>
		<layer id="228" name="Constant_68520" type="Const" version="opset1">
			<data element_type="i64" shape="1" offset="315368288" size="8" />
			<output>
				<port id="0" precision="I64">
					<dim>1</dim>
				</port>
			</output>
		</layer>
		<layer id="229" name="Constant_243" type="Const" version="opset1">
			<data element_type="i32" shape="" offset="0" size="4" />
			<output>
				<port id="0" precision="I32" />
			</output>
		</layer>
		<layer id="230" name="Unsqueeze_244" type="Unsqueeze" version="opset1">
			<input>
				<port id="0" precision="I64" />
				<port id="1" precision="I32" />
			</input>
			<output>
				<port id="2" precision="I64">
					<dim>1</dim>
				</port>
			</output>
		</layer>
		<layer id="231" name="__module.model/prim::ListConstruct" type="Concat" version="opset1">
			<data axis="0" />
			<input>
				<port id="0" precision="I64">
					<dim>1</dim>
				</port>
				<port id="1" precision="I64">
					<dim>1</dim>
				</port>
				<port id="2" precision="I64">
					<dim>1</dim>
				</port>
				<port id="3" precision="I64">
					<dim>1</dim>
				</port>
			</input>
			<output>
				<port id="4" precision="I64">
					<dim>4</dim>
				</port>
			</output>
		</layer>
		<layer id="232" name="__module.model/aten::expand/Broadcast" type="Broadcast" version="opset3">
			<data mode="bidirectional" />
			<input>
				<port id="0" precision="BOOL">
					<dim>-1</dim>
					<dim>1</dim>
					<dim>-1</dim>
					<dim>-1</dim>
				</port>
				<port id="1" precision="I64">
					<dim>4</dim>
				</port>
			</input>
			<output>
				<port id="2" precision="BOOL" names="324,mask">
					<dim>-1</dim>
					<dim>1</dim>
					<dim>-1</dim>
					<dim>-1</dim>
				</port>
			</output>
		</layer>
		<layer id="233" name="__module.model/aten::to/Convert_3" type="Const" version="opset1">
			<data element_type="f32" shape="" offset="0" size="4" />
			<output>
				<port id="0" precision="FP32" names="325" />
			</output>
		</layer>
		<layer id="234" name="__module.model/aten::to/Convert_4" type="Const" version="opset1">
			<data element_type="f32" shape="" offset="319563245" size="4" />
			<output>
				<port id="0" precision="FP32" names="327" />
			</output>
		</layer>
		<layer id="235" name="__module.model/aten::where/Select" type="Select" version="opset1">
			<data auto_broadcast="numpy" />
			<input>
				<port id="0" precision="BOOL">
					<dim>-1</dim>
					<dim>1</dim>
					<dim>-1</dim>
					<dim>-1</dim>
				</port>
				<port id="1" precision="FP32" />
				<port id="2" precision="FP32" />
			</input>
			<output>
				<port id="3" precision="FP32" names="1020,1021,1022,1197,1198,1199,1374,1375,1376,1551,1552,1553,1728,1729,1730,1905,1906,1907,2082,2083,2084,2259,2260,2261,2436,2437,2438,2613,2614,2615,2790,2791,2792,2967,2968,2969,3144,3145,3146,329,3321,3322,3323,3498,3499,3500,3675,3676,3677,3852,3853,3854,4029,4030,4031,4206,4207,4208,4383,4384,4385,4560,4561,4562,4737,4738,4739,489,490,491,4914,4915,4916,5091,5092,5093,5268,5269,5270,666,667,668,843,844,845,attention_mask.5">
					<dim>-1</dim>
					<dim>1</dim>
					<dim>-1</dim>
					<dim>-1</dim>
				</port>
			</output>
		</layer>
		<layer id="236" name="Constant_1432" type="Const" version="opset1">
			<data element_type="i64" shape="1" offset="4" size="8" />
			<output>
				<port id="0" precision="I64">
					<dim>1</dim>
				</port>
			</output>
		</layer>
		<layer id="237" name="Constant_1435" type="Const" version="opset1">
			<data element_type="i64" shape="1" offset="315368288" size="8" />
			<output>
				<port id="0" precision="I64">
					<dim>1</dim>
				</port>
			</output>
		</layer>
		<layer id="238" name="Constant_1430" type="Const" version="opset1">
			<data element_type="i64" shape="1" offset="315368324" size="8" />
			<output>
				<port id="0" precision="I64">
					<dim>1</dim>
				</port>
			</output>
		</layer>
		<layer id="239" name="__module.model.layers.0.self_attn/aten::slice/Slice_15" type="Slice" version="opset8">
			<input>
				<port id="0" precision="FP32">
					<dim>-1</dim>
					<dim>1</dim>
					<dim>-1</dim>
					<dim>-1</dim>
				</port>
				<port id="1" precision="I64">
					<dim>1</dim>
				</port>
				<port id="2" precision="I64">
					<dim>1</dim>
				</port>
				<port id="3" precision="I64">
					<dim>1</dim>
				</port>
				<port id="4" precision="I64">
					<dim>1</dim>
				</port>
			</input>
			<output>
				<port id="5" precision="FP32" names="1023,1200,1377,1554,1731,1908,2085,2262,2439,2616,2793,2970,3147,3324,3501,3678,3855,4032,4209,4386,4563,4740,4917,492,5094,5271,669,846,attention_mask.11,attention_mask.13,attention_mask.15,attention_mask.17,attention_mask.19,attention_mask.21,attention_mask.23,attention_mask.25,attention_mask.27,attention_mask.29,attention_mask.31,attention_mask.33,attention_mask.35,attention_mask.37,attention_mask.39,attention_mask.41,attention_mask.43,attention_mask.45,attention_mask.47,attention_mask.49,attention_mask.51,attention_mask.53,attention_mask.55,attention_mask.57,attention_mask.59,attention_mask.7,attention_mask.9,attention_mask_1">
					<dim>-1</dim>
					<dim>1</dim>
					<dim>-1</dim>
					<dim>-1</dim>
				</port>
			</output>
		</layer>
		<layer id="240" name="__module.model.layers.0.self_attn/aten::scaled_dot_product_attention/ConvertLike" type="Const" version="opset1">
			<data element_type="f32" shape="" offset="319563249" size="4" />
			<output>
				<port id="0" precision="FP32" />
			</output>
		</layer>
		<layer id="241" name="__module.model.layers.0.self_attn/aten::scaled_dot_product_attention/ScaledDotProductAttention" type="ScaledDotProductAttention" version="opset13">
			<data causal="false" />
			<input>
				<port id="0" precision="FP32">
					<dim>-1</dim>
					<dim>16</dim>
					<dim>-1</dim>
					<dim>128</dim>
				</port>
				<port id="1" precision="FP32">
					<dim>-1</dim>
					<dim>16</dim>
					<dim>-1</dim>
					<dim>128</dim>
				</port>
				<port id="2" precision="FP32">
					<dim>-1</dim>
					<dim>16</dim>
					<dim>-1</dim>
					<dim>128</dim>
				</port>
				<port id="3" precision="FP32">
					<dim>-1</dim>
					<dim>1</dim>
					<dim>-1</dim>
					<dim>-1</dim>
				</port>
				<port id="4" precision="FP32" />
			</input>
			<output>
				<port id="5" precision="FP32" names="493,attn_output.1">
					<dim>-1</dim>
					<dim>16</dim>
					<dim>-1</dim>
					<dim>128</dim>
				</port>
			</output>
		</layer>
		<layer id="242" name="__module.model.layers.0.self_attn/aten::transpose/Constant_3" type="Const" version="opset1">
			<data element_type="i32" shape="4" offset="315368016" size="16" />
			<output>
				<port id="0" precision="I32">
					<dim>4</dim>
				</port>
			</output>
		</layer>
		<layer id="243" name="__module.model.layers.0.self_attn/aten::transpose/Transpose_3" type="Transpose" version="opset1">
			<input>
				<port id="0" precision="FP32">
					<dim>-1</dim>
					<dim>16</dim>
					<dim>-1</dim>
					<dim>128</dim>
				</port>
				<port id="1" precision="I32">
					<dim>4</dim>
				</port>
			</input>
			<output>
				<port id="2" precision="FP32" names="494">
					<dim>-1</dim>
					<dim>-1</dim>
					<dim>16</dim>
					<dim>128</dim>
				</port>
			</output>
		</layer>
		<layer id="244" name="Constant_85881" type="Const" version="opset1">
			<data element_type="i64" shape="3" offset="319563253" size="24" />
			<output>
				<port id="0" precision="I64">
					<dim>3</dim>
				</port>
			</output>
		</layer>
		<layer id="245" name="__module.model.layers.0.self_attn/aten::reshape/Reshape_2" type="Reshape" version="opset1">
			<data special_zero="true" />
			<input>
				<port id="0" precision="FP32">
					<dim>-1</dim>
					<dim>-1</dim>
					<dim>16</dim>
					<dim>128</dim>
				</port>
				<port id="1" precision="I64">
					<dim>3</dim>
				</port>
			</input>
			<output>
				<port id="2" precision="FP32" names="497">
					<dim>-1</dim>
					<dim>-1</dim>
					<dim>2048</dim>
				</port>
			</output>
		</layer>
		<layer id="246" name="self.model.layers.0.self_attn.o_proj.weight" type="Const" version="opset1">
			<data element_type="bf16" shape="1024, 2048" offset="319563277" size="4194304" />
			<output>
				<port id="0" precision="BF16" names="self.model.layers.0.self_attn.o_proj.weight">
					<dim>1024</dim>
					<dim>2048</dim>
				</port>
			</output>
		</layer>
		<layer id="247" name="__module.model.layers.0.self_attn.o_proj/ov_ext::linear/Convert" type="Convert" version="opset1">
			<data destination_type="f32" />
			<rt_info>
				<attribute name="decompression" version="0" />
			</rt_info>
			<input>
				<port id="0" precision="BF16">
					<dim>1024</dim>
					<dim>2048</dim>
				</port>
			</input>
			<output>
				<port id="1" precision="FP32">
					<dim>1024</dim>
					<dim>2048</dim>
				</port>
			</output>
		</layer>
		<layer id="248" name="__module.model.layers.0.self_attn.o_proj/ov_ext::linear/MatMul" type="MatMul" version="opset1">
			<data transpose_a="false" transpose_b="true" />
			<input>
				<port id="0" precision="FP32">
					<dim>-1</dim>
					<dim>-1</dim>
					<dim>2048</dim>
				</port>
				<port id="1" precision="FP32">
					<dim>1024</dim>
					<dim>2048</dim>
				</port>
			</input>
			<output>
				<port id="2" precision="FP32" names="500,502,hidden_states.33">
					<dim>-1</dim>
					<dim>-1</dim>
					<dim>1024</dim>
				</port>
			</output>
		</layer>
		<layer id="249" name="__module.model.layers.0/aten::add/Add" type="Add" version="opset1">
			<data auto_broadcast="numpy" />
			<input>
				<port id="0" precision="FP32">
					<dim>-1</dim>
					<dim>-1</dim>
					<dim>1024</dim>
				</port>
				<port id="1" precision="FP32">
					<dim>-1</dim>
					<dim>-1</dim>
					<dim>1024</dim>
				</port>
			</input>
			<output>
				<port id="2" precision="FP32" names="505,507,518,hidden_states.35,hidden_states.37">
					<dim>-1</dim>
					<dim>-1</dim>
					<dim>1024</dim>
				</port>
			</output>
		</layer>
		<layer id="250" name="Constant_77156" type="Const" version="opset1">
			<data element_type="f32" shape="1, 1, 1024" offset="323757581" size="4096" />
			<output>
				<port id="0" precision="FP32">
					<dim>1</dim>
					<dim>1</dim>
					<dim>1024</dim>
				</port>
			</output>
		</layer>
		<layer id="251" name="Constant_77155" type="Const" version="opset1">
			<data element_type="f32" shape="1, 1, 1" offset="311173660" size="4" />
			<output>
				<port id="0" precision="FP32">
					<dim>1</dim>
					<dim>1</dim>
					<dim>1</dim>
				</port>
			</output>
		</layer>
		<layer id="252" name="Constant_77153" type="Const" version="opset1">
			<data element_type="f32" shape="1, 1, 1" offset="311173664" size="4" />
			<output>
				<port id="0" precision="FP32">
					<dim>1</dim>
					<dim>1</dim>
					<dim>1</dim>
				</port>
			</output>
		</layer>
		<layer id="253" name="__module.model.layers.0.post_attention_layernorm/aten::pow/Power" type="Power" version="opset1">
			<data auto_broadcast="numpy" />
			<input>
				<port id="0" precision="FP32">
					<dim>-1</dim>
					<dim>-1</dim>
					<dim>1024</dim>
				</port>
				<port id="1" precision="FP32">
					<dim>1</dim>
					<dim>1</dim>
					<dim>1</dim>
				</port>
			</input>
			<output>
				<port id="2" precision="FP32" names="508">
					<dim>-1</dim>
					<dim>-1</dim>
					<dim>1024</dim>
				</port>
			</output>
		</layer>
		<layer id="254" name="Constant_1505" type="Const" version="opset1">
			<data element_type="i64" shape="1" offset="311173668" size="8" />
			<output>
				<port id="0" precision="I64" names="509">
					<dim>1</dim>
				</port>
			</output>
		</layer>
		<layer id="255" name="__module.model.layers.0.post_attention_layernorm/aten::mean/ReduceMean" type="ReduceMean" version="opset1">
			<data keep_dims="true" />
			<input>
				<port id="0" precision="FP32">
					<dim>-1</dim>
					<dim>-1</dim>
					<dim>1024</dim>
				</port>
				<port id="1" precision="I64">
					<dim>1</dim>
				</port>
			</input>
			<output>
				<port id="2" precision="FP32" names="510,variance.7">
					<dim>-1</dim>
					<dim>-1</dim>
					<dim>1</dim>
				</port>
			</output>
		</layer>
		<layer id="256" name="Constant_77154" type="Const" version="opset1">
			<data element_type="f32" shape="1, 1, 1" offset="311173676" size="4" />
			<output>
				<port id="0" precision="FP32">
					<dim>1</dim>
					<dim>1</dim>
					<dim>1</dim>
				</port>
			</output>
		</layer>
		<layer id="257" name="__module.model.layers.0.post_attention_layernorm/aten::add/Add" type="Add" version="opset1">
			<data auto_broadcast="numpy" />
			<input>
				<port id="0" precision="FP32">
					<dim>-1</dim>
					<dim>-1</dim>
					<dim>1</dim>
				</port>
				<port id="1" precision="FP32">
					<dim>1</dim>
					<dim>1</dim>
					<dim>1</dim>
				</port>
			</input>
			<output>
				<port id="2" precision="FP32" names="511">
					<dim>-1</dim>
					<dim>-1</dim>
					<dim>1</dim>
				</port>
			</output>
		</layer>
		<layer id="258" name="__module.model.layers.0.post_attention_layernorm/aten::rsqrt/Sqrt" type="Sqrt" version="opset1">
			<input>
				<port id="0" precision="FP32">
					<dim>-1</dim>
					<dim>-1</dim>
					<dim>1</dim>
				</port>
			</input>
			<output>
				<port id="1" precision="FP32">
					<dim>-1</dim>
					<dim>-1</dim>
					<dim>1</dim>
				</port>
			</output>
		</layer>
		<layer id="259" name="__module.model.layers.0.post_attention_layernorm/aten::rsqrt/Divide" type="Divide" version="opset1">
			<data auto_broadcast="numpy" m_pythondiv="true" />
			<input>
				<port id="0" precision="FP32">
					<dim>1</dim>
					<dim>1</dim>
					<dim>1</dim>
				</port>
				<port id="1" precision="FP32">
					<dim>-1</dim>
					<dim>-1</dim>
					<dim>1</dim>
				</port>
			</input>
			<output>
				<port id="2" precision="FP32" names="512">
					<dim>-1</dim>
					<dim>-1</dim>
					<dim>1</dim>
				</port>
			</output>
		</layer>
		<layer id="260" name="__module.model.layers.0.post_attention_layernorm/aten::mul/Multiply" type="Multiply" version="opset1">
			<data auto_broadcast="numpy" />
			<input>
				<port id="0" precision="FP32">
					<dim>-1</dim>
					<dim>-1</dim>
					<dim>1024</dim>
				</port>
				<port id="1" precision="FP32">
					<dim>-1</dim>
					<dim>-1</dim>
					<dim>1</dim>
				</port>
			</input>
			<output>
				<port id="2" precision="FP32" names="513,514,hidden_states.39,hidden_states.41">
					<dim>-1</dim>
					<dim>-1</dim>
					<dim>1024</dim>
				</port>
			</output>
		</layer>
		<layer id="261" name="__module.model.layers.0.post_attention_layernorm/aten::mul/Multiply_1" type="Multiply" version="opset1">
			<data auto_broadcast="numpy" />
			<input>
				<port id="0" precision="FP32">
					<dim>1</dim>
					<dim>1</dim>
					<dim>1024</dim>
				</port>
				<port id="1" precision="FP32">
					<dim>-1</dim>
					<dim>-1</dim>
					<dim>1024</dim>
				</port>
			</input>
			<output>
				<port id="2" precision="FP32" names="515,517">
					<dim>-1</dim>
					<dim>-1</dim>
					<dim>1024</dim>
				</port>
			</output>
		</layer>
		<layer id="262" name="self.model.layers.0.mlp.gate_proj.weight" type="Const" version="opset1">
			<data element_type="bf16" shape="3072, 1024" offset="323761677" size="6291456" />
			<output>
				<port id="0" precision="BF16" names="self.model.layers.0.mlp.gate_proj.weight">
					<dim>3072</dim>
					<dim>1024</dim>
				</port>
			</output>
		</layer>
		<layer id="263" name="__module.model.layers.0.mlp.gate_proj/ov_ext::linear/Convert" type="Convert" version="opset1">
			<data destination_type="f32" />
			<rt_info>
				<attribute name="decompression" version="0" />
			</rt_info>
			<input>
				<port id="0" precision="BF16">
					<dim>3072</dim>
					<dim>1024</dim>
				</port>
			</input>
			<output>
				<port id="1" precision="FP32">
					<dim>3072</dim>
					<dim>1024</dim>
				</port>
			</output>
		</layer>
		<layer id="264" name="__module.model.layers.0.mlp.gate_proj/ov_ext::linear/MatMul" type="MatMul" version="opset1">
			<data transpose_a="false" transpose_b="true" />
			<input>
				<port id="0" precision="FP32">
					<dim>-1</dim>
					<dim>-1</dim>
					<dim>1024</dim>
				</port>
				<port id="1" precision="FP32">
					<dim>3072</dim>
					<dim>1024</dim>
				</port>
			</input>
			<output>
				<port id="2" precision="FP32" names="523,input.1">
					<dim>-1</dim>
					<dim>-1</dim>
					<dim>3072</dim>
				</port>
			</output>
		</layer>
		<layer id="265" name="__module.model.layers.0.mlp.act_fn/aten::silu/Swish" type="Swish" version="opset4">
			<input>
				<port id="0" precision="FP32">
					<dim>-1</dim>
					<dim>-1</dim>
					<dim>3072</dim>
				</port>
			</input>
			<output>
				<port id="1" precision="FP32" names="524">
					<dim>-1</dim>
					<dim>-1</dim>
					<dim>3072</dim>
				</port>
			</output>
		</layer>
		<layer id="266" name="self.model.layers.0.mlp.up_proj.weight" type="Const" version="opset1">
			<data element_type="bf16" shape="3072, 1024" offset="330053133" size="6291456" />
			<output>
				<port id="0" precision="BF16" names="self.model.layers.0.mlp.up_proj.weight">
					<dim>3072</dim>
					<dim>1024</dim>
				</port>
			</output>
		</layer>
		<layer id="267" name="__module.model.layers.0.mlp.up_proj/ov_ext::linear/Convert" type="Convert" version="opset1">
			<data destination_type="f32" />
			<rt_info>
				<attribute name="decompression" version="0" />
			</rt_info>
			<input>
				<port id="0" precision="BF16">
					<dim>3072</dim>
					<dim>1024</dim>
				</port>
			</input>
			<output>
				<port id="1" precision="FP32">
					<dim>3072</dim>
					<dim>1024</dim>
				</port>
			</output>
		</layer>
		<layer id="268" name="__module.model.layers.0.mlp.up_proj/ov_ext::linear/MatMul" type="MatMul" version="opset1">
			<data transpose_a="false" transpose_b="true" />
			<input>
				<port id="0" precision="FP32">
					<dim>-1</dim>
					<dim>-1</dim>
					<dim>1024</dim>
				</port>
				<port id="1" precision="FP32">
					<dim>3072</dim>
					<dim>1024</dim>
				</port>
			</input>
			<output>
				<port id="2" precision="FP32" names="526">
					<dim>-1</dim>
					<dim>-1</dim>
					<dim>3072</dim>
				</port>
			</output>
		</layer>
		<layer id="269" name="__module.model.layers.0.mlp/aten::mul/Multiply" type="Multiply" version="opset1">
			<data auto_broadcast="numpy" />
			<input>
				<port id="0" precision="FP32">
					<dim>-1</dim>
					<dim>-1</dim>
					<dim>3072</dim>
				</port>
				<port id="1" precision="FP32">
					<dim>-1</dim>
					<dim>-1</dim>
					<dim>3072</dim>
				</port>
			</input>
			<output>
				<port id="2" precision="FP32" names="527">
					<dim>-1</dim>
					<dim>-1</dim>
					<dim>3072</dim>
				</port>
			</output>
		</layer>
		<layer id="270" name="self.model.layers.0.mlp.down_proj.weight" type="Const" version="opset1">
			<data element_type="bf16" shape="1024, 3072" offset="336344589" size="6291456" />
			<output>
				<port id="0" precision="BF16" names="self.model.layers.0.mlp.down_proj.weight">
					<dim>1024</dim>
					<dim>3072</dim>
				</port>
			</output>
		</layer>
		<layer id="271" name="__module.model.layers.0.mlp.down_proj/ov_ext::linear/Convert" type="Convert" version="opset1">
			<data destination_type="f32" />
			<rt_info>
				<attribute name="decompression" version="0" />
			</rt_info>
			<input>
				<port id="0" precision="BF16">
					<dim>1024</dim>
					<dim>3072</dim>
				</port>
			</input>
			<output>
				<port id="1" precision="FP32">
					<dim>1024</dim>
					<dim>3072</dim>
				</port>
			</output>
		</layer>
		<layer id="272" name="__module.model.layers.0.mlp.down_proj/ov_ext::linear/MatMul" type="MatMul" version="opset1">
			<data transpose_a="false" transpose_b="true" />
			<input>
				<port id="0" precision="FP32">
					<dim>-1</dim>
					<dim>-1</dim>
					<dim>3072</dim>
				</port>
				<port id="1" precision="FP32">
					<dim>1024</dim>
					<dim>3072</dim>
				</port>
			</input>
			<output>
				<port id="2" precision="FP32" names="529,hidden_states.43">
					<dim>-1</dim>
					<dim>-1</dim>
					<dim>1024</dim>
				</port>
			</output>
		</layer>
		<layer id="273" name="__module.model.layers.0/aten::add/Add_1" type="Add" version="opset1">
			<data auto_broadcast="numpy" />
			<input>
				<port id="0" precision="FP32">
					<dim>-1</dim>
					<dim>-1</dim>
					<dim>1024</dim>
				</port>
				<port id="1" precision="FP32">
					<dim>-1</dim>
					<dim>-1</dim>
					<dim>1024</dim>
				</port>
			</input>
			<output>
				<port id="2" precision="FP32" names="530,532,540,551,hidden_states.45,hidden_states.47">
					<dim>-1</dim>
					<dim>-1</dim>
					<dim>1024</dim>
				</port>
			</output>
		</layer>
		<layer id="274" name="Constant_77164" type="Const" version="opset1">
			<data element_type="f32" shape="1, 1, 1, 128" offset="342636045" size="512" />
			<output>
				<port id="0" precision="FP32">
					<dim>1</dim>
					<dim>1</dim>
					<dim>1</dim>
					<dim>128</dim>
				</port>
			</output>
		</layer>
		<layer id="275" name="Constant_77160" type="Const" version="opset1">
			<data element_type="f32" shape="1, 1, 1024" offset="342636557" size="4096" />
			<output>
				<port id="0" precision="FP32">
					<dim>1</dim>
					<dim>1</dim>
					<dim>1024</dim>
				</port>
			</output>
		</layer>
		<layer id="276" name="Constant_77159" type="Const" version="opset1">
			<data element_type="f32" shape="1, 1, 1" offset="311173660" size="4" />
			<output>
				<port id="0" precision="FP32">
					<dim>1</dim>
					<dim>1</dim>
					<dim>1</dim>
				</port>
			</output>
		</layer>
		<layer id="277" name="Constant_77157" type="Const" version="opset1">
			<data element_type="f32" shape="1, 1, 1" offset="311173664" size="4" />
			<output>
				<port id="0" precision="FP32">
					<dim>1</dim>
					<dim>1</dim>
					<dim>1</dim>
				</port>
			</output>
		</layer>
		<layer id="278" name="__module.model.layers.1.input_layernorm/aten::pow/Power" type="Power" version="opset1">
			<data auto_broadcast="numpy" />
			<input>
				<port id="0" precision="FP32">
					<dim>-1</dim>
					<dim>-1</dim>
					<dim>1024</dim>
				</port>
				<port id="1" precision="FP32">
					<dim>1</dim>
					<dim>1</dim>
					<dim>1</dim>
				</port>
			</input>
			<output>
				<port id="2" precision="FP32" names="541">
					<dim>-1</dim>
					<dim>-1</dim>
					<dim>1024</dim>
				</port>
			</output>
		</layer>
		<layer id="279" name="Constant_1579" type="Const" version="opset1">
			<data element_type="i64" shape="1" offset="311173668" size="8" />
			<output>
				<port id="0" precision="I64" names="542">
					<dim>1</dim>
				</port>
			</output>
		</layer>
		<layer id="280" name="__module.model.layers.1.input_layernorm/aten::mean/ReduceMean" type="ReduceMean" version="opset1">
			<data keep_dims="true" />
			<input>
				<port id="0" precision="FP32">
					<dim>-1</dim>
					<dim>-1</dim>
					<dim>1024</dim>
				</port>
				<port id="1" precision="I64">
					<dim>1</dim>
				</port>
			</input>
			<output>
				<port id="2" precision="FP32" names="543,variance.9">
					<dim>-1</dim>
					<dim>-1</dim>
					<dim>1</dim>
				</port>
			</output>
		</layer>
		<layer id="281" name="Constant_77158" type="Const" version="opset1">
			<data element_type="f32" shape="1, 1, 1" offset="311173676" size="4" />
			<output>
				<port id="0" precision="FP32">
					<dim>1</dim>
					<dim>1</dim>
					<dim>1</dim>
				</port>
			</output>
		</layer>
		<layer id="282" name="__module.model.layers.1.input_layernorm/aten::add/Add" type="Add" version="opset1">
			<data auto_broadcast="numpy" />
			<input>
				<port id="0" precision="FP32">
					<dim>-1</dim>
					<dim>-1</dim>
					<dim>1</dim>
				</port>
				<port id="1" precision="FP32">
					<dim>1</dim>
					<dim>1</dim>
					<dim>1</dim>
				</port>
			</input>
			<output>
				<port id="2" precision="FP32" names="544">
					<dim>-1</dim>
					<dim>-1</dim>
					<dim>1</dim>
				</port>
			</output>
		</layer>
		<layer id="283" name="__module.model.layers.1.input_layernorm/aten::rsqrt/Sqrt" type="Sqrt" version="opset1">
			<input>
				<port id="0" precision="FP32">
					<dim>-1</dim>
					<dim>-1</dim>
					<dim>1</dim>
				</port>
			</input>
			<output>
				<port id="1" precision="FP32">
					<dim>-1</dim>
					<dim>-1</dim>
					<dim>1</dim>
				</port>
			</output>
		</layer>
		<layer id="284" name="__module.model.layers.1.input_layernorm/aten::rsqrt/Divide" type="Divide" version="opset1">
			<data auto_broadcast="numpy" m_pythondiv="true" />
			<input>
				<port id="0" precision="FP32">
					<dim>1</dim>
					<dim>1</dim>
					<dim>1</dim>
				</port>
				<port id="1" precision="FP32">
					<dim>-1</dim>
					<dim>-1</dim>
					<dim>1</dim>
				</port>
			</input>
			<output>
				<port id="2" precision="FP32" names="545">
					<dim>-1</dim>
					<dim>-1</dim>
					<dim>1</dim>
				</port>
			</output>
		</layer>
		<layer id="285" name="__module.model.layers.1.input_layernorm/aten::mul/Multiply" type="Multiply" version="opset1">
			<data auto_broadcast="numpy" />
			<input>
				<port id="0" precision="FP32">
					<dim>-1</dim>
					<dim>-1</dim>
					<dim>1024</dim>
				</port>
				<port id="1" precision="FP32">
					<dim>-1</dim>
					<dim>-1</dim>
					<dim>1</dim>
				</port>
			</input>
			<output>
				<port id="2" precision="FP32" names="546,547,hidden_states.49,hidden_states.51">
					<dim>-1</dim>
					<dim>-1</dim>
					<dim>1024</dim>
				</port>
			</output>
		</layer>
		<layer id="286" name="__module.model.layers.1.input_layernorm/aten::mul/Multiply_1" type="Multiply" version="opset1">
			<data auto_broadcast="numpy" />
			<input>
				<port id="0" precision="FP32">
					<dim>1</dim>
					<dim>1</dim>
					<dim>1024</dim>
				</port>
				<port id="1" precision="FP32">
					<dim>-1</dim>
					<dim>-1</dim>
					<dim>1024</dim>
				</port>
			</input>
			<output>
				<port id="2" precision="FP32" names="548,550,hidden_states.53">
					<dim>-1</dim>
					<dim>-1</dim>
					<dim>1024</dim>
				</port>
			</output>
		</layer>
		<layer id="287" name="self.model.layers.1.self_attn.q_proj.weight" type="Const" version="opset1">
			<data element_type="bf16" shape="2048, 1024" offset="342640653" size="4194304" />
			<output>
				<port id="0" precision="BF16" names="self.model.layers.1.self_attn.q_proj.weight">
					<dim>2048</dim>
					<dim>1024</dim>
				</port>
			</output>
		</layer>
		<layer id="288" name="__module.model.layers.1.self_attn.q_proj/ov_ext::linear/Convert" type="Convert" version="opset1">
			<data destination_type="f32" />
			<rt_info>
				<attribute name="decompression" version="0" />
			</rt_info>
			<input>
				<port id="0" precision="BF16">
					<dim>2048</dim>
					<dim>1024</dim>
				</port>
			</input>
			<output>
				<port id="1" precision="FP32">
					<dim>2048</dim>
					<dim>1024</dim>
				</port>
			</output>
		</layer>
		<layer id="289" name="__module.model.layers.1.self_attn.q_proj/ov_ext::linear/MatMul" type="MatMul" version="opset1">
			<data transpose_a="false" transpose_b="true" />
			<input>
				<port id="0" precision="FP32">
					<dim>-1</dim>
					<dim>-1</dim>
					<dim>1024</dim>
				</port>
				<port id="1" precision="FP32">
					<dim>2048</dim>
					<dim>1024</dim>
				</port>
			</input>
			<output>
				<port id="2" precision="FP32" names="561">
					<dim>-1</dim>
					<dim>-1</dim>
					<dim>2048</dim>
				</port>
			</output>
		</layer>
		<layer id="290" name="Constant_85882" type="Const" version="opset1">
			<data element_type="i64" shape="4" offset="315367984" size="32" />
			<output>
				<port id="0" precision="I64">
					<dim>4</dim>
				</port>
			</output>
		</layer>
		<layer id="291" name="__module.model.layers.1.self_attn/aten::view/Reshape" type="Reshape" version="opset1">
			<data special_zero="true" />
			<input>
				<port id="0" precision="FP32">
					<dim>-1</dim>
					<dim>-1</dim>
					<dim>2048</dim>
				</port>
				<port id="1" precision="I64">
					<dim>4</dim>
				</port>
			</input>
			<output>
				<port id="2" precision="FP32" names="563,565,hidden_states.55,hidden_states.57">
					<dim>-1</dim>
					<dim>-1</dim>
					<dim>16</dim>
					<dim>128</dim>
				</port>
			</output>
		</layer>
		<layer id="292" name="Constant_77163" type="Const" version="opset1">
			<data element_type="f32" shape="1, 1, 1, 1" offset="311173660" size="4" />
			<output>
				<port id="0" precision="FP32">
					<dim>1</dim>
					<dim>1</dim>
					<dim>1</dim>
					<dim>1</dim>
				</port>
			</output>
		</layer>
		<layer id="293" name="Constant_77161" type="Const" version="opset1">
			<data element_type="f32" shape="1, 1, 1, 1" offset="311173664" size="4" />
			<output>
				<port id="0" precision="FP32">
					<dim>1</dim>
					<dim>1</dim>
					<dim>1</dim>
					<dim>1</dim>
				</port>
			</output>
		</layer>
		<layer id="294" name="__module.model.layers.1.self_attn.q_norm/aten::pow/Power" type="Power" version="opset1">
			<data auto_broadcast="numpy" />
			<input>
				<port id="0" precision="FP32">
					<dim>-1</dim>
					<dim>-1</dim>
					<dim>16</dim>
					<dim>128</dim>
				</port>
				<port id="1" precision="FP32">
					<dim>1</dim>
					<dim>1</dim>
					<dim>1</dim>
					<dim>1</dim>
				</port>
			</input>
			<output>
				<port id="2" precision="FP32" names="566">
					<dim>-1</dim>
					<dim>-1</dim>
					<dim>16</dim>
					<dim>128</dim>
				</port>
			</output>
		</layer>
		<layer id="295" name="Constant_1648" type="Const" version="opset1">
			<data element_type="i64" shape="1" offset="311173668" size="8" />
			<output>
				<port id="0" precision="I64" names="567">
					<dim>1</dim>
				</port>
			</output>
		</layer>
		<layer id="296" name="__module.model.layers.1.self_attn.q_norm/aten::mean/ReduceMean" type="ReduceMean" version="opset1">
			<data keep_dims="true" />
			<input>
				<port id="0" precision="FP32">
					<dim>-1</dim>
					<dim>-1</dim>
					<dim>16</dim>
					<dim>128</dim>
				</port>
				<port id="1" precision="I64">
					<dim>1</dim>
				</port>
			</input>
			<output>
				<port id="2" precision="FP32" names="568,variance.11">
					<dim>-1</dim>
					<dim>-1</dim>
					<dim>16</dim>
					<dim>1</dim>
				</port>
			</output>
		</layer>
		<layer id="297" name="Constant_77162" type="Const" version="opset1">
			<data element_type="f32" shape="1, 1, 1, 1" offset="311173676" size="4" />
			<output>
				<port id="0" precision="FP32">
					<dim>1</dim>
					<dim>1</dim>
					<dim>1</dim>
					<dim>1</dim>
				</port>
			</output>
		</layer>
		<layer id="298" name="__module.model.layers.1.self_attn.q_norm/aten::add/Add" type="Add" version="opset1">
			<data auto_broadcast="numpy" />
			<input>
				<port id="0" precision="FP32">
					<dim>-1</dim>
					<dim>-1</dim>
					<dim>16</dim>
					<dim>1</dim>
				</port>
				<port id="1" precision="FP32">
					<dim>1</dim>
					<dim>1</dim>
					<dim>1</dim>
					<dim>1</dim>
				</port>
			</input>
			<output>
				<port id="2" precision="FP32" names="569">
					<dim>-1</dim>
					<dim>-1</dim>
					<dim>16</dim>
					<dim>1</dim>
				</port>
			</output>
		</layer>
		<layer id="299" name="__module.model.layers.1.self_attn.q_norm/aten::rsqrt/Sqrt" type="Sqrt" version="opset1">
			<input>
				<port id="0" precision="FP32">
					<dim>-1</dim>
					<dim>-1</dim>
					<dim>16</dim>
					<dim>1</dim>
				</port>
			</input>
			<output>
				<port id="1" precision="FP32">
					<dim>-1</dim>
					<dim>-1</dim>
					<dim>16</dim>
					<dim>1</dim>
				</port>
			</output>
		</layer>
		<layer id="300" name="__module.model.layers.1.self_attn.q_norm/aten::rsqrt/Divide" type="Divide" version="opset1">
			<data auto_broadcast="numpy" m_pythondiv="true" />
			<input>
				<port id="0" precision="FP32">
					<dim>1</dim>
					<dim>1</dim>
					<dim>1</dim>
					<dim>1</dim>
				</port>
				<port id="1" precision="FP32">
					<dim>-1</dim>
					<dim>-1</dim>
					<dim>16</dim>
					<dim>1</dim>
				</port>
			</input>
			<output>
				<port id="2" precision="FP32" names="570">
					<dim>-1</dim>
					<dim>-1</dim>
					<dim>16</dim>
					<dim>1</dim>
				</port>
			</output>
		</layer>
		<layer id="301" name="__module.model.layers.1.self_attn.q_norm/aten::mul/Multiply" type="Multiply" version="opset1">
			<data auto_broadcast="numpy" />
			<input>
				<port id="0" precision="FP32">
					<dim>-1</dim>
					<dim>-1</dim>
					<dim>16</dim>
					<dim>128</dim>
				</port>
				<port id="1" precision="FP32">
					<dim>-1</dim>
					<dim>-1</dim>
					<dim>16</dim>
					<dim>1</dim>
				</port>
			</input>
			<output>
				<port id="2" precision="FP32" names="571,572,hidden_states.59,hidden_states.61">
					<dim>-1</dim>
					<dim>-1</dim>
					<dim>16</dim>
					<dim>128</dim>
				</port>
			</output>
		</layer>
		<layer id="302" name="__module.model.layers.1.self_attn.q_norm/aten::mul/Multiply_1" type="Multiply" version="opset1">
			<data auto_broadcast="numpy" />
			<input>
				<port id="0" precision="FP32">
					<dim>1</dim>
					<dim>1</dim>
					<dim>1</dim>
					<dim>128</dim>
				</port>
				<port id="1" precision="FP32">
					<dim>-1</dim>
					<dim>-1</dim>
					<dim>16</dim>
					<dim>128</dim>
				</port>
			</input>
			<output>
				<port id="2" precision="FP32" names="573">
					<dim>-1</dim>
					<dim>-1</dim>
					<dim>16</dim>
					<dim>128</dim>
				</port>
			</output>
		</layer>
		<layer id="303" name="__module.model.layers.1.self_attn/aten::transpose/Constant" type="Const" version="opset1">
			<data element_type="i32" shape="4" offset="315368016" size="16" />
			<output>
				<port id="0" precision="I32">
					<dim>4</dim>
				</port>
			</output>
		</layer>
		<layer id="304" name="__module.model.layers.1.self_attn/aten::transpose/Transpose" type="Transpose" version="opset1">
			<input>
				<port id="0" precision="FP32">
					<dim>-1</dim>
					<dim>-1</dim>
					<dim>16</dim>
					<dim>128</dim>
				</port>
				<port id="1" precision="I32">
					<dim>4</dim>
				</port>
			</input>
			<output>
				<port id="2" precision="FP32" names="574,q.3">
					<dim>-1</dim>
					<dim>16</dim>
					<dim>-1</dim>
					<dim>128</dim>
				</port>
			</output>
		</layer>
		<layer id="305" name="__module.model.layers.1.self_attn/aten::mul/Multiply" type="Multiply" version="opset1">
			<data auto_broadcast="numpy" />
			<input>
				<port id="0" precision="FP32">
					<dim>-1</dim>
					<dim>16</dim>
					<dim>-1</dim>
					<dim>128</dim>
				</port>
				<port id="1" precision="FP32">
					<dim>-1</dim>
					<dim>1</dim>
					<dim>-1</dim>
					<dim>128</dim>
				</port>
			</input>
			<output>
				<port id="2" precision="FP32" names="597">
					<dim>-1</dim>
					<dim>16</dim>
					<dim>-1</dim>
					<dim>128</dim>
				</port>
			</output>
		</layer>
		<layer id="306" name="Constant_1963" type="Const" version="opset1">
			<data element_type="i64" shape="1" offset="315368308" size="8" />
			<output>
				<port id="0" precision="I64">
					<dim>1</dim>
				</port>
			</output>
		</layer>
		<layer id="307" name="Constant_1965" type="Const" version="opset1">
			<data element_type="i64" shape="1" offset="315368316" size="8" />
			<output>
				<port id="0" precision="I64">
					<dim>1</dim>
				</port>
			</output>
		</layer>
		<layer id="308" name="Constant_1967" type="Const" version="opset1">
			<data element_type="i64" shape="1" offset="315368288" size="8" />
			<output>
				<port id="0" precision="I64">
					<dim>1</dim>
				</port>
			</output>
		</layer>
		<layer id="309" name="Constant_1919" type="Const" version="opset1">
			<data element_type="i64" shape="1" offset="315368324" size="8" />
			<output>
				<port id="0" precision="I64">
					<dim>1</dim>
				</port>
			</output>
		</layer>
		<layer id="310" name="__module.model.layers.1.self_attn/aten::slice/Slice" type="Slice" version="opset8">
			<input>
				<port id="0" precision="FP32">
					<dim>-1</dim>
					<dim>16</dim>
					<dim>-1</dim>
					<dim>128</dim>
				</port>
				<port id="1" precision="I64">
					<dim>1</dim>
				</port>
				<port id="2" precision="I64">
					<dim>1</dim>
				</port>
				<port id="3" precision="I64">
					<dim>1</dim>
				</port>
				<port id="4" precision="I64">
					<dim>1</dim>
				</port>
			</input>
			<output>
				<port id="5" precision="FP32" names="607,x2.5">
					<dim>-1</dim>
					<dim>16</dim>
					<dim>-1</dim>
					<dim>64</dim>
				</port>
			</output>
		</layer>
		<layer id="311" name="__module.model.layers.1.self_attn/aten::neg/Constant" type="Const" version="opset1">
			<data element_type="i32" shape="" offset="315368332" size="4" />
			<output>
				<port id="0" precision="I32" />
			</output>
		</layer>
		<layer id="312" name="__module.model.layers.1.self_attn/aten::neg/ConvertLike" type="Convert" version="opset1">
			<data destination_type="f32" />
			<input>
				<port id="0" precision="I32" />
			</input>
			<output>
				<port id="1" precision="FP32" />
			</output>
		</layer>
		<layer id="313" name="__module.model.layers.1.self_attn/aten::neg/Multiply" type="Multiply" version="opset1">
			<data auto_broadcast="numpy" />
			<input>
				<port id="0" precision="FP32">
					<dim>-1</dim>
					<dim>16</dim>
					<dim>-1</dim>
					<dim>64</dim>
				</port>
				<port id="1" precision="FP32" />
			</input>
			<output>
				<port id="2" precision="FP32" names="608">
					<dim>-1</dim>
					<dim>16</dim>
					<dim>-1</dim>
					<dim>64</dim>
				</port>
			</output>
		</layer>
		<layer id="314" name="Constant_1860" type="Const" version="opset1">
			<data element_type="i64" shape="1" offset="4" size="8" />
			<output>
				<port id="0" precision="I64">
					<dim>1</dim>
				</port>
			</output>
		</layer>
		<layer id="315" name="Constant_1904" type="Const" version="opset1">
			<data element_type="i64" shape="1" offset="315368308" size="8" />
			<output>
				<port id="0" precision="I64">
					<dim>1</dim>
				</port>
			</output>
		</layer>
		<layer id="316" name="Constant_1906" type="Const" version="opset1">
			<data element_type="i64" shape="1" offset="315368288" size="8" />
			<output>
				<port id="0" precision="I64">
					<dim>1</dim>
				</port>
			</output>
		</layer>
		<layer id="317" name="Constant_1858" type="Const" version="opset1">
			<data element_type="i64" shape="1" offset="315368324" size="8" />
			<output>
				<port id="0" precision="I64">
					<dim>1</dim>
				</port>
			</output>
		</layer>
		<layer id="318" name="__module.model.layers.1.self_attn/aten::slice/Slice_1" type="Slice" version="opset8">
			<input>
				<port id="0" precision="FP32">
					<dim>-1</dim>
					<dim>16</dim>
					<dim>-1</dim>
					<dim>128</dim>
				</port>
				<port id="1" precision="I64">
					<dim>1</dim>
				</port>
				<port id="2" precision="I64">
					<dim>1</dim>
				</port>
				<port id="3" precision="I64">
					<dim>1</dim>
				</port>
				<port id="4" precision="I64">
					<dim>1</dim>
				</port>
			</input>
			<output>
				<port id="5" precision="FP32" names="602,x1.5">
					<dim>-1</dim>
					<dim>16</dim>
					<dim>-1</dim>
					<dim>64</dim>
				</port>
			</output>
		</layer>
		<layer id="319" name="__module.model.layers.1.self_attn/aten::cat/Concat" type="Concat" version="opset1">
			<data axis="-1" />
			<input>
				<port id="0" precision="FP32">
					<dim>-1</dim>
					<dim>16</dim>
					<dim>-1</dim>
					<dim>64</dim>
				</port>
				<port id="1" precision="FP32">
					<dim>-1</dim>
					<dim>16</dim>
					<dim>-1</dim>
					<dim>64</dim>
				</port>
			</input>
			<output>
				<port id="2" precision="FP32" names="610">
					<dim>-1</dim>
					<dim>16</dim>
					<dim>-1</dim>
					<dim>128</dim>
				</port>
			</output>
		</layer>
		<layer id="320" name="__module.model.layers.1.self_attn/aten::mul/Multiply_1" type="Multiply" version="opset1">
			<data auto_broadcast="numpy" />
			<input>
				<port id="0" precision="FP32">
					<dim>-1</dim>
					<dim>16</dim>
					<dim>-1</dim>
					<dim>128</dim>
				</port>
				<port id="1" precision="FP32">
					<dim>-1</dim>
					<dim>1</dim>
					<dim>-1</dim>
					<dim>128</dim>
				</port>
			</input>
			<output>
				<port id="2" precision="FP32" names="611">
					<dim>-1</dim>
					<dim>16</dim>
					<dim>-1</dim>
					<dim>128</dim>
				</port>
			</output>
		</layer>
		<layer id="321" name="__module.model.layers.1.self_attn/aten::add/Add" type="Add" version="opset1">
			<data auto_broadcast="numpy" />
			<input>
				<port id="0" precision="FP32">
					<dim>-1</dim>
					<dim>16</dim>
					<dim>-1</dim>
					<dim>128</dim>
				</port>
				<port id="1" precision="FP32">
					<dim>-1</dim>
					<dim>16</dim>
					<dim>-1</dim>
					<dim>128</dim>
				</port>
			</input>
			<output>
				<port id="2" precision="FP32" names="612,query.3">
					<dim>-1</dim>
					<dim>16</dim>
					<dim>-1</dim>
					<dim>128</dim>
				</port>
			</output>
		</layer>
		<layer id="322" name="Constant_88662" type="Const" version="opset1">
			<data element_type="f32" shape="" offset="0" size="4" />
			<output>
				<port id="0" precision="FP32" />
			</output>
		</layer>
		<layer id="323" name="Constant_88655" type="Const" version="opset1">
			<data element_type="i64" shape="1" offset="12" size="8" />
			<output>
				<port id="0" precision="I64">
					<dim>1</dim>
				</port>
			</output>
		</layer>
		<layer id="324" name="Constant_88657" type="Const" version="opset1">
			<data element_type="i64" shape="1" offset="4" size="8" />
			<output>
				<port id="0" precision="I64">
					<dim>1</dim>
				</port>
			</output>
		</layer>
		<layer id="325" name="Constant_88659" type="Const" version="opset1">
			<data element_type="i64" shape="1" offset="20" size="8" />
			<output>
				<port id="0" precision="I64">
					<dim>1</dim>
				</port>
			</output>
		</layer>
		<layer id="326" name="Concat_88660" type="Concat" version="opset1">
			<data axis="0" />
			<input>
				<port id="0" precision="I64">
					<dim>1</dim>
				</port>
				<port id="1" precision="I64">
					<dim>1</dim>
				</port>
				<port id="2" precision="I64">
					<dim>1</dim>
				</port>
				<port id="3" precision="I64">
					<dim>1</dim>
				</port>
			</input>
			<output>
				<port id="4" precision="I64">
					<dim>4</dim>
				</port>
			</output>
		</layer>
		<layer id="327" name="Broadcast_88663" type="Broadcast" version="opset3">
			<data mode="numpy" />
			<input>
				<port id="0" precision="FP32" />
				<port id="1" precision="I64">
					<dim>4</dim>
				</port>
			</input>
			<output>
				<port id="2" precision="FP32">
					<dim>-1</dim>
					<dim>8</dim>
					<dim>0</dim>
					<dim>128</dim>
				</port>
			</output>
		</layer>
		<layer id="328" name="ReadValue_88082" type="ReadValue" version="opset6">
			<data variable_id="past_key_values.1.keypresent.1.key" variable_type="f32" variable_shape="?,8,?,128" />
			<input>
				<port id="0" precision="FP32">
					<dim>-1</dim>
					<dim>8</dim>
					<dim>0</dim>
					<dim>128</dim>
				</port>
			</input>
			<output>
				<port id="1" precision="FP32" names="past_key_values.1.key">
					<dim>-1</dim>
					<dim>8</dim>
					<dim>-1</dim>
					<dim>128</dim>
				</port>
			</output>
		</layer>
		<layer id="329" name="Constant_87507" type="Const" version="opset1">
			<data element_type="i64" shape="" offset="4" size="8" />
			<output>
				<port id="0" precision="I64" />
			</output>
		</layer>
		<layer id="330" name="Gather_87508" type="Gather" version="opset8">
			<data batch_dims="0" />
			<input>
				<port id="0" precision="FP32">
					<dim>-1</dim>
					<dim>8</dim>
					<dim>-1</dim>
					<dim>128</dim>
				</port>
				<port id="1" precision="I32">
					<dim>-1</dim>
				</port>
				<port id="2" precision="I64" />
			</input>
			<output>
				<port id="3" precision="FP32">
					<dim>-1</dim>
					<dim>8</dim>
					<dim>-1</dim>
					<dim>128</dim>
				</port>
			</output>
		</layer>
		<layer id="331" name="Constant_77168" type="Const" version="opset1">
			<data element_type="f32" shape="1, 1, 1, 128" offset="346834957" size="512" />
			<output>
				<port id="0" precision="FP32">
					<dim>1</dim>
					<dim>1</dim>
					<dim>1</dim>
					<dim>128</dim>
				</port>
			</output>
		</layer>
		<layer id="332" name="self.model.layers.1.self_attn.k_proj.weight" type="Const" version="opset1">
			<data element_type="bf16" shape="1024, 1024" offset="346835469" size="2097152" />
			<output>
				<port id="0" precision="BF16" names="self.model.layers.1.self_attn.k_proj.weight">
					<dim>1024</dim>
					<dim>1024</dim>
				</port>
			</output>
		</layer>
		<layer id="333" name="__module.model.layers.1.self_attn.k_proj/ov_ext::linear/Convert" type="Convert" version="opset1">
			<data destination_type="f32" />
			<rt_info>
				<attribute name="decompression" version="0" />
			</rt_info>
			<input>
				<port id="0" precision="BF16">
					<dim>1024</dim>
					<dim>1024</dim>
				</port>
			</input>
			<output>
				<port id="1" precision="FP32">
					<dim>1024</dim>
					<dim>1024</dim>
				</port>
			</output>
		</layer>
		<layer id="334" name="__module.model.layers.1.self_attn.k_proj/ov_ext::linear/MatMul" type="MatMul" version="opset1">
			<data transpose_a="false" transpose_b="true" />
			<input>
				<port id="0" precision="FP32">
					<dim>-1</dim>
					<dim>-1</dim>
					<dim>1024</dim>
				</port>
				<port id="1" precision="FP32">
					<dim>1024</dim>
					<dim>1024</dim>
				</port>
			</input>
			<output>
				<port id="2" precision="FP32" names="576">
					<dim>-1</dim>
					<dim>-1</dim>
					<dim>1024</dim>
				</port>
			</output>
		</layer>
		<layer id="335" name="Constant_85883" type="Const" version="opset1">
			<data element_type="i64" shape="4" offset="317466000" size="32" />
			<output>
				<port id="0" precision="I64">
					<dim>4</dim>
				</port>
			</output>
		</layer>
		<layer id="336" name="__module.model.layers.1.self_attn/aten::view/Reshape_1" type="Reshape" version="opset1">
			<data special_zero="true" />
			<input>
				<port id="0" precision="FP32">
					<dim>-1</dim>
					<dim>-1</dim>
					<dim>1024</dim>
				</port>
				<port id="1" precision="I64">
					<dim>4</dim>
				</port>
			</input>
			<output>
				<port id="2" precision="FP32" names="578,580,hidden_states.63,hidden_states.65">
					<dim>-1</dim>
					<dim>-1</dim>
					<dim>8</dim>
					<dim>128</dim>
				</port>
			</output>
		</layer>
		<layer id="337" name="Constant_77167" type="Const" version="opset1">
			<data element_type="f32" shape="1, 1, 1, 1" offset="311173660" size="4" />
			<output>
				<port id="0" precision="FP32">
					<dim>1</dim>
					<dim>1</dim>
					<dim>1</dim>
					<dim>1</dim>
				</port>
			</output>
		</layer>
		<layer id="338" name="Constant_77165" type="Const" version="opset1">
			<data element_type="f32" shape="1, 1, 1, 1" offset="311173664" size="4" />
			<output>
				<port id="0" precision="FP32">
					<dim>1</dim>
					<dim>1</dim>
					<dim>1</dim>
					<dim>1</dim>
				</port>
			</output>
		</layer>
		<layer id="339" name="__module.model.layers.1.self_attn.k_norm/aten::pow/Power" type="Power" version="opset1">
			<data auto_broadcast="numpy" />
			<input>
				<port id="0" precision="FP32">
					<dim>-1</dim>
					<dim>-1</dim>
					<dim>8</dim>
					<dim>128</dim>
				</port>
				<port id="1" precision="FP32">
					<dim>1</dim>
					<dim>1</dim>
					<dim>1</dim>
					<dim>1</dim>
				</port>
			</input>
			<output>
				<port id="2" precision="FP32" names="581">
					<dim>-1</dim>
					<dim>-1</dim>
					<dim>8</dim>
					<dim>128</dim>
				</port>
			</output>
		</layer>
		<layer id="340" name="Constant_1735" type="Const" version="opset1">
			<data element_type="i64" shape="1" offset="311173668" size="8" />
			<output>
				<port id="0" precision="I64" names="582">
					<dim>1</dim>
				</port>
			</output>
		</layer>
		<layer id="341" name="__module.model.layers.1.self_attn.k_norm/aten::mean/ReduceMean" type="ReduceMean" version="opset1">
			<data keep_dims="true" />
			<input>
				<port id="0" precision="FP32">
					<dim>-1</dim>
					<dim>-1</dim>
					<dim>8</dim>
					<dim>128</dim>
				</port>
				<port id="1" precision="I64">
					<dim>1</dim>
				</port>
			</input>
			<output>
				<port id="2" precision="FP32" names="583,variance.13">
					<dim>-1</dim>
					<dim>-1</dim>
					<dim>8</dim>
					<dim>1</dim>
				</port>
			</output>
		</layer>
		<layer id="342" name="Constant_77166" type="Const" version="opset1">
			<data element_type="f32" shape="1, 1, 1, 1" offset="311173676" size="4" />
			<output>
				<port id="0" precision="FP32">
					<dim>1</dim>
					<dim>1</dim>
					<dim>1</dim>
					<dim>1</dim>
				</port>
			</output>
		</layer>
		<layer id="343" name="__module.model.layers.1.self_attn.k_norm/aten::add/Add" type="Add" version="opset1">
			<data auto_broadcast="numpy" />
			<input>
				<port id="0" precision="FP32">
					<dim>-1</dim>
					<dim>-1</dim>
					<dim>8</dim>
					<dim>1</dim>
				</port>
				<port id="1" precision="FP32">
					<dim>1</dim>
					<dim>1</dim>
					<dim>1</dim>
					<dim>1</dim>
				</port>
			</input>
			<output>
				<port id="2" precision="FP32" names="584">
					<dim>-1</dim>
					<dim>-1</dim>
					<dim>8</dim>
					<dim>1</dim>
				</port>
			</output>
		</layer>
		<layer id="344" name="__module.model.layers.1.self_attn.k_norm/aten::rsqrt/Sqrt" type="Sqrt" version="opset1">
			<input>
				<port id="0" precision="FP32">
					<dim>-1</dim>
					<dim>-1</dim>
					<dim>8</dim>
					<dim>1</dim>
				</port>
			</input>
			<output>
				<port id="1" precision="FP32">
					<dim>-1</dim>
					<dim>-1</dim>
					<dim>8</dim>
					<dim>1</dim>
				</port>
			</output>
		</layer>
		<layer id="345" name="__module.model.layers.1.self_attn.k_norm/aten::rsqrt/Divide" type="Divide" version="opset1">
			<data auto_broadcast="numpy" m_pythondiv="true" />
			<input>
				<port id="0" precision="FP32">
					<dim>1</dim>
					<dim>1</dim>
					<dim>1</dim>
					<dim>1</dim>
				</port>
				<port id="1" precision="FP32">
					<dim>-1</dim>
					<dim>-1</dim>
					<dim>8</dim>
					<dim>1</dim>
				</port>
			</input>
			<output>
				<port id="2" precision="FP32" names="585">
					<dim>-1</dim>
					<dim>-1</dim>
					<dim>8</dim>
					<dim>1</dim>
				</port>
			</output>
		</layer>
		<layer id="346" name="__module.model.layers.1.self_attn.k_norm/aten::mul/Multiply" type="Multiply" version="opset1">
			<data auto_broadcast="numpy" />
			<input>
				<port id="0" precision="FP32">
					<dim>-1</dim>
					<dim>-1</dim>
					<dim>8</dim>
					<dim>128</dim>
				</port>
				<port id="1" precision="FP32">
					<dim>-1</dim>
					<dim>-1</dim>
					<dim>8</dim>
					<dim>1</dim>
				</port>
			</input>
			<output>
				<port id="2" precision="FP32" names="586,587,hidden_states.67,hidden_states.69">
					<dim>-1</dim>
					<dim>-1</dim>
					<dim>8</dim>
					<dim>128</dim>
				</port>
			</output>
		</layer>
		<layer id="347" name="__module.model.layers.1.self_attn.k_norm/aten::mul/Multiply_1" type="Multiply" version="opset1">
			<data auto_broadcast="numpy" />
			<input>
				<port id="0" precision="FP32">
					<dim>1</dim>
					<dim>1</dim>
					<dim>1</dim>
					<dim>128</dim>
				</port>
				<port id="1" precision="FP32">
					<dim>-1</dim>
					<dim>-1</dim>
					<dim>8</dim>
					<dim>128</dim>
				</port>
			</input>
			<output>
				<port id="2" precision="FP32" names="588">
					<dim>-1</dim>
					<dim>-1</dim>
					<dim>8</dim>
					<dim>128</dim>
				</port>
			</output>
		</layer>
		<layer id="348" name="__module.model.layers.1.self_attn/aten::transpose/Constant_1" type="Const" version="opset1">
			<data element_type="i32" shape="4" offset="315368016" size="16" />
			<output>
				<port id="0" precision="I32">
					<dim>4</dim>
				</port>
			</output>
		</layer>
		<layer id="349" name="__module.model.layers.1.self_attn/aten::transpose/Transpose_1" type="Transpose" version="opset1">
			<input>
				<port id="0" precision="FP32">
					<dim>-1</dim>
					<dim>-1</dim>
					<dim>8</dim>
					<dim>128</dim>
				</port>
				<port id="1" precision="I32">
					<dim>4</dim>
				</port>
			</input>
			<output>
				<port id="2" precision="FP32" names="589,k.3">
					<dim>-1</dim>
					<dim>8</dim>
					<dim>-1</dim>
					<dim>128</dim>
				</port>
			</output>
		</layer>
		<layer id="350" name="__module.model.layers.1.self_attn/aten::mul/Multiply_2" type="Multiply" version="opset1">
			<data auto_broadcast="numpy" />
			<input>
				<port id="0" precision="FP32">
					<dim>-1</dim>
					<dim>8</dim>
					<dim>-1</dim>
					<dim>128</dim>
				</port>
				<port id="1" precision="FP32">
					<dim>-1</dim>
					<dim>1</dim>
					<dim>-1</dim>
					<dim>128</dim>
				</port>
			</input>
			<output>
				<port id="2" precision="FP32" names="613">
					<dim>-1</dim>
					<dim>8</dim>
					<dim>-1</dim>
					<dim>128</dim>
				</port>
			</output>
		</layer>
		<layer id="351" name="Constant_2106" type="Const" version="opset1">
			<data element_type="i64" shape="1" offset="315368308" size="8" />
			<output>
				<port id="0" precision="I64">
					<dim>1</dim>
				</port>
			</output>
		</layer>
		<layer id="352" name="Constant_2108" type="Const" version="opset1">
			<data element_type="i64" shape="1" offset="315368316" size="8" />
			<output>
				<port id="0" precision="I64">
					<dim>1</dim>
				</port>
			</output>
		</layer>
		<layer id="353" name="Constant_2110" type="Const" version="opset1">
			<data element_type="i64" shape="1" offset="315368288" size="8" />
			<output>
				<port id="0" precision="I64">
					<dim>1</dim>
				</port>
			</output>
		</layer>
		<layer id="354" name="Constant_2062" type="Const" version="opset1">
			<data element_type="i64" shape="1" offset="315368324" size="8" />
			<output>
				<port id="0" precision="I64">
					<dim>1</dim>
				</port>
			</output>
		</layer>
		<layer id="355" name="__module.model.layers.1.self_attn/aten::slice/Slice_2" type="Slice" version="opset8">
			<input>
				<port id="0" precision="FP32">
					<dim>-1</dim>
					<dim>8</dim>
					<dim>-1</dim>
					<dim>128</dim>
				</port>
				<port id="1" precision="I64">
					<dim>1</dim>
				</port>
				<port id="2" precision="I64">
					<dim>1</dim>
				</port>
				<port id="3" precision="I64">
					<dim>1</dim>
				</port>
				<port id="4" precision="I64">
					<dim>1</dim>
				</port>
			</input>
			<output>
				<port id="5" precision="FP32" names="623,x2.7">
					<dim>-1</dim>
					<dim>8</dim>
					<dim>-1</dim>
					<dim>64</dim>
				</port>
			</output>
		</layer>
		<layer id="356" name="__module.model.layers.1.self_attn/aten::neg/Constant_1" type="Const" version="opset1">
			<data element_type="i32" shape="" offset="315368332" size="4" />
			<output>
				<port id="0" precision="I32" />
			</output>
		</layer>
		<layer id="357" name="__module.model.layers.1.self_attn/aten::neg/ConvertLike_1" type="Convert" version="opset1">
			<data destination_type="f32" />
			<input>
				<port id="0" precision="I32" />
			</input>
			<output>
				<port id="1" precision="FP32" />
			</output>
		</layer>
		<layer id="358" name="__module.model.layers.1.self_attn/aten::neg/Multiply_1" type="Multiply" version="opset1">
			<data auto_broadcast="numpy" />
			<input>
				<port id="0" precision="FP32">
					<dim>-1</dim>
					<dim>8</dim>
					<dim>-1</dim>
					<dim>64</dim>
				</port>
				<port id="1" precision="FP32" />
			</input>
			<output>
				<port id="2" precision="FP32" names="624">
					<dim>-1</dim>
					<dim>8</dim>
					<dim>-1</dim>
					<dim>64</dim>
				</port>
			</output>
		</layer>
		<layer id="359" name="Constant_2003" type="Const" version="opset1">
			<data element_type="i64" shape="1" offset="4" size="8" />
			<output>
				<port id="0" precision="I64">
					<dim>1</dim>
				</port>
			</output>
		</layer>
		<layer id="360" name="Constant_2047" type="Const" version="opset1">
			<data element_type="i64" shape="1" offset="315368308" size="8" />
			<output>
				<port id="0" precision="I64">
					<dim>1</dim>
				</port>
			</output>
		</layer>
		<layer id="361" name="Constant_2049" type="Const" version="opset1">
			<data element_type="i64" shape="1" offset="315368288" size="8" />
			<output>
				<port id="0" precision="I64">
					<dim>1</dim>
				</port>
			</output>
		</layer>
		<layer id="362" name="Constant_2001" type="Const" version="opset1">
			<data element_type="i64" shape="1" offset="315368324" size="8" />
			<output>
				<port id="0" precision="I64">
					<dim>1</dim>
				</port>
			</output>
		</layer>
		<layer id="363" name="__module.model.layers.1.self_attn/aten::slice/Slice_3" type="Slice" version="opset8">
			<input>
				<port id="0" precision="FP32">
					<dim>-1</dim>
					<dim>8</dim>
					<dim>-1</dim>
					<dim>128</dim>
				</port>
				<port id="1" precision="I64">
					<dim>1</dim>
				</port>
				<port id="2" precision="I64">
					<dim>1</dim>
				</port>
				<port id="3" precision="I64">
					<dim>1</dim>
				</port>
				<port id="4" precision="I64">
					<dim>1</dim>
				</port>
			</input>
			<output>
				<port id="5" precision="FP32" names="618,x1.7">
					<dim>-1</dim>
					<dim>8</dim>
					<dim>-1</dim>
					<dim>64</dim>
				</port>
			</output>
		</layer>
		<layer id="364" name="__module.model.layers.1.self_attn/aten::cat/Concat_1" type="Concat" version="opset1">
			<data axis="-1" />
			<input>
				<port id="0" precision="FP32">
					<dim>-1</dim>
					<dim>8</dim>
					<dim>-1</dim>
					<dim>64</dim>
				</port>
				<port id="1" precision="FP32">
					<dim>-1</dim>
					<dim>8</dim>
					<dim>-1</dim>
					<dim>64</dim>
				</port>
			</input>
			<output>
				<port id="2" precision="FP32" names="626">
					<dim>-1</dim>
					<dim>8</dim>
					<dim>-1</dim>
					<dim>128</dim>
				</port>
			</output>
		</layer>
		<layer id="365" name="__module.model.layers.1.self_attn/aten::mul/Multiply_3" type="Multiply" version="opset1">
			<data auto_broadcast="numpy" />
			<input>
				<port id="0" precision="FP32">
					<dim>-1</dim>
					<dim>8</dim>
					<dim>-1</dim>
					<dim>128</dim>
				</port>
				<port id="1" precision="FP32">
					<dim>-1</dim>
					<dim>1</dim>
					<dim>-1</dim>
					<dim>128</dim>
				</port>
			</input>
			<output>
				<port id="2" precision="FP32" names="627">
					<dim>-1</dim>
					<dim>8</dim>
					<dim>-1</dim>
					<dim>128</dim>
				</port>
			</output>
		</layer>
		<layer id="366" name="__module.model.layers.1.self_attn/aten::add/Add_1" type="Add" version="opset1">
			<data auto_broadcast="numpy" />
			<input>
				<port id="0" precision="FP32">
					<dim>-1</dim>
					<dim>8</dim>
					<dim>-1</dim>
					<dim>128</dim>
				</port>
				<port id="1" precision="FP32">
					<dim>-1</dim>
					<dim>8</dim>
					<dim>-1</dim>
					<dim>128</dim>
				</port>
			</input>
			<output>
				<port id="2" precision="FP32" names="628,key_states.3">
					<dim>-1</dim>
					<dim>8</dim>
					<dim>-1</dim>
					<dim>128</dim>
				</port>
			</output>
		</layer>
		<layer id="367" name="__module.model.layers.1.self_attn/aten::cat/Concat_2" type="Concat" version="opset1">
			<data axis="-2" />
			<input>
				<port id="0" precision="FP32">
					<dim>-1</dim>
					<dim>8</dim>
					<dim>-1</dim>
					<dim>128</dim>
				</port>
				<port id="1" precision="FP32">
					<dim>-1</dim>
					<dim>8</dim>
					<dim>-1</dim>
					<dim>128</dim>
				</port>
			</input>
			<output>
				<port id="2" precision="FP32" names="638,639,hidden_states.71">
					<dim>-1</dim>
					<dim>8</dim>
					<dim>-1</dim>
					<dim>128</dim>
				</port>
			</output>
		</layer>
		<layer id="368" name="__module.model.layers.1.self_attn/aten::unsqueeze/Unsqueeze_2" type="Unsqueeze" version="opset1">
			<input>
				<port id="0" precision="FP32">
					<dim>-1</dim>
					<dim>8</dim>
					<dim>-1</dim>
					<dim>128</dim>
				</port>
				<port id="1" precision="I64" />
			</input>
			<output>
				<port id="2" precision="FP32" names="640,641,642">
					<dim>-1</dim>
					<dim>8</dim>
					<dim>1</dim>
					<dim>-1</dim>
					<dim>128</dim>
				</port>
			</output>
		</layer>
		<layer id="369" name="__module.model.layers.1.self_attn/aten::expand/Broadcast" type="Broadcast" version="opset3">
			<data mode="bidirectional" />
			<input>
				<port id="0" precision="FP32">
					<dim>-1</dim>
					<dim>8</dim>
					<dim>1</dim>
					<dim>-1</dim>
					<dim>128</dim>
				</port>
				<port id="1" precision="I64">
					<dim>5</dim>
				</port>
			</input>
			<output>
				<port id="2" precision="FP32" names="644,hidden_states.73">
					<dim>-1</dim>
					<dim>8</dim>
					<dim>2</dim>
					<dim>-1</dim>
					<dim>128</dim>
				</port>
			</output>
		</layer>
		<layer id="370" name="Constant_85884" type="Const" version="opset1">
			<data element_type="i64" shape="4" offset="317466056" size="32" />
			<output>
				<port id="0" precision="I64">
					<dim>4</dim>
				</port>
			</output>
		</layer>
		<layer id="371" name="__module.model.layers.1.self_attn/aten::reshape/Reshape" type="Reshape" version="opset1">
			<data special_zero="true" />
			<input>
				<port id="0" precision="FP32">
					<dim>-1</dim>
					<dim>8</dim>
					<dim>2</dim>
					<dim>-1</dim>
					<dim>128</dim>
				</port>
				<port id="1" precision="I64">
					<dim>4</dim>
				</port>
			</input>
			<output>
				<port id="2" precision="FP32" names="648,key.3">
					<dim>-1</dim>
					<dim>16</dim>
					<dim>-1</dim>
					<dim>128</dim>
				</port>
			</output>
		</layer>
		<layer id="372" name="Constant_88650" type="Const" version="opset1">
			<data element_type="f32" shape="" offset="0" size="4" />
			<output>
				<port id="0" precision="FP32" />
			</output>
		</layer>
		<layer id="373" name="Constant_88643" type="Const" version="opset1">
			<data element_type="i64" shape="1" offset="12" size="8" />
			<output>
				<port id="0" precision="I64">
					<dim>1</dim>
				</port>
			</output>
		</layer>
		<layer id="374" name="Constant_88645" type="Const" version="opset1">
			<data element_type="i64" shape="1" offset="4" size="8" />
			<output>
				<port id="0" precision="I64">
					<dim>1</dim>
				</port>
			</output>
		</layer>
		<layer id="375" name="Constant_88647" type="Const" version="opset1">
			<data element_type="i64" shape="1" offset="20" size="8" />
			<output>
				<port id="0" precision="I64">
					<dim>1</dim>
				</port>
			</output>
		</layer>
		<layer id="376" name="Concat_88648" type="Concat" version="opset1">
			<data axis="0" />
			<input>
				<port id="0" precision="I64">
					<dim>1</dim>
				</port>
				<port id="1" precision="I64">
					<dim>1</dim>
				</port>
				<port id="2" precision="I64">
					<dim>1</dim>
				</port>
				<port id="3" precision="I64">
					<dim>1</dim>
				</port>
			</input>
			<output>
				<port id="4" precision="I64">
					<dim>4</dim>
				</port>
			</output>
		</layer>
		<layer id="377" name="Broadcast_88651" type="Broadcast" version="opset3">
			<data mode="numpy" />
			<input>
				<port id="0" precision="FP32" />
				<port id="1" precision="I64">
					<dim>4</dim>
				</port>
			</input>
			<output>
				<port id="2" precision="FP32">
					<dim>-1</dim>
					<dim>8</dim>
					<dim>0</dim>
					<dim>128</dim>
				</port>
			</output>
		</layer>
…
		<edge from-layer="3760" from-port="0" to-layer="3771" to-port="0" />
		<edge from-layer="3761" from-port="0" to-layer="3769" to-port="0" />
		<edge from-layer="3762" from-port="0" to-layer="3763" to-port="1" />
		<edge from-layer="3763" from-port="2" to-layer="3765" to-port="0" />
		<edge from-layer="3764" from-port="0" to-layer="3765" to-port="1" />
		<edge from-layer="3765" from-port="2" to-layer="3767" to-port="0" />
		<edge from-layer="3766" from-port="0" to-layer="3767" to-port="1" />
		<edge from-layer="3767" from-port="2" to-layer="3768" to-port="0" />
		<edge from-layer="3768" from-port="1" to-layer="3769" to-port="1" />
		<edge from-layer="3769" from-port="2" to-layer="3770" to-port="1" />
		<edge from-layer="3770" from-port="2" to-layer="3771" to-port="1" />
		<edge from-layer="3771" from-port="2" to-layer="3774" to-port="0" />
		<edge from-layer="3771" from-port="2" to-layer="3778" to-port="0" />
		<edge from-layer="3772" from-port="0" to-layer="3773" to-port="0" />
		<edge from-layer="3773" from-port="1" to-layer="3774" to-port="1" />
		<edge from-layer="3774" from-port="2" to-layer="3775" to-port="0" />
		<edge from-layer="3775" from-port="1" to-layer="3779" to-port="0" />
		<edge from-layer="3776" from-port="0" to-layer="3777" to-port="0" />
		<edge from-layer="3777" from-port="1" to-layer="3778" to-port="1" />
		<edge from-layer="3778" from-port="2" to-layer="3779" to-port="1" />
		<edge from-layer="3779" from-port="2" to-layer="3782" to-port="0" />
		<edge from-layer="3780" from-port="0" to-layer="3781" to-port="0" />
		<edge from-layer="3781" from-port="1" to-layer="3782" to-port="1" />
		<edge from-layer="3782" from-port="2" to-layer="3783" to-port="1" />
		<edge from-layer="3783" from-port="2" to-layer="3911" to-port="0" />
		<edge from-layer="3783" from-port="2" to-layer="3795" to-port="0" />
		<edge from-layer="3783" from-port="2" to-layer="3788" to-port="0" />
		<edge from-layer="3784" from-port="0" to-layer="3812" to-port="0" />
		<edge from-layer="3785" from-port="0" to-layer="3796" to-port="0" />
		<edge from-layer="3786" from-port="0" to-layer="3794" to-port="0" />
		<edge from-layer="3787" from-port="0" to-layer="3788" to-port="1" />
		<edge from-layer="3788" from-port="2" to-layer="3790" to-port="0" />
		<edge from-layer="3789" from-port="0" to-layer="3790" to-port="1" />
		<edge from-layer="3790" from-port="2" to-layer="3792" to-port="0" />
		<edge from-layer="3791" from-port="0" to-layer="3792" to-port="1" />
		<edge from-layer="3792" from-port="2" to-layer="3793" to-port="0" />
		<edge from-layer="3793" from-port="1" to-layer="3794" to-port="1" />
		<edge from-layer="3794" from-port="2" to-layer="3795" to-port="1" />
		<edge from-layer="3795" from-port="2" to-layer="3796" to-port="1" />
		<edge from-layer="3796" from-port="2" to-layer="3799" to-port="0" />
		<edge from-layer="3796" from-port="2" to-layer="3893" to-port="0" />
		<edge from-layer="3796" from-port="2" to-layer="3844" to-port="0" />
		<edge from-layer="3797" from-port="0" to-layer="3798" to-port="0" />
		<edge from-layer="3798" from-port="1" to-layer="3799" to-port="1" />
		<edge from-layer="3799" from-port="2" to-layer="3801" to-port="0" />
		<edge from-layer="3800" from-port="0" to-layer="3801" to-port="1" />
		<edge from-layer="3801" from-port="2" to-layer="3804" to-port="0" />
		<edge from-layer="3801" from-port="2" to-layer="3811" to-port="0" />
		<edge from-layer="3802" from-port="0" to-layer="3810" to-port="0" />
		<edge from-layer="3803" from-port="0" to-layer="3804" to-port="1" />
		<edge from-layer="3804" from-port="2" to-layer="3806" to-port="0" />
		<edge from-layer="3805" from-port="0" to-layer="3806" to-port="1" />
		<edge from-layer="3806" from-port="2" to-layer="3808" to-port="0" />
		<edge from-layer="3807" from-port="0" to-layer="3808" to-port="1" />
		<edge from-layer="3808" from-port="2" to-layer="3809" to-port="0" />
		<edge from-layer="3809" from-port="1" to-layer="3810" to-port="1" />
		<edge from-layer="3810" from-port="2" to-layer="3811" to-port="1" />
		<edge from-layer="3811" from-port="2" to-layer="3812" to-port="1" />
		<edge from-layer="3812" from-port="2" to-layer="3814" to-port="0" />
		<edge from-layer="3813" from-port="0" to-layer="3814" to-port="1" />
		<edge from-layer="3814" from-port="2" to-layer="3828" to-port="0" />
		<edge from-layer="3814" from-port="2" to-layer="3820" to-port="0" />
		<edge from-layer="3814" from-port="2" to-layer="3815" to-port="0" />
		<edge from-layer="3815" from-port="2" to-layer="3831" to-port="0" />
		<edge from-layer="3816" from-port="0" to-layer="3820" to-port="1" />
		<edge from-layer="3817" from-port="0" to-layer="3820" to-port="2" />
		<edge from-layer="3818" from-port="0" to-layer="3820" to-port="3" />
		<edge from-layer="3819" from-port="0" to-layer="3820" to-port="4" />
		<edge from-layer="3820" from-port="5" to-layer="3823" to-port="0" />
		<edge from-layer="3821" from-port="0" to-layer="3822" to-port="0" />
		<edge from-layer="3822" from-port="1" to-layer="3823" to-port="1" />
		<edge from-layer="3823" from-port="2" to-layer="3829" to-port="0" />
		<edge from-layer="3824" from-port="0" to-layer="3828" to-port="1" />
		<edge from-layer="3825" from-port="0" to-layer="3828" to-port="2" />
		<edge from-layer="3826" from-port="0" to-layer="3828" to-port="3" />
		<edge from-layer="3827" from-port="0" to-layer="3828" to-port="4" />
		<edge from-layer="3828" from-port="5" to-layer="3829" to-port="1" />
		<edge from-layer="3829" from-port="2" to-layer="3830" to-port="0" />
		<edge from-layer="3830" from-port="2" to-layer="3831" to-port="1" />
		<edge from-layer="3831" from-port="2" to-layer="3903" to-port="0" />
		<edge from-layer="3832" from-port="0" to-layer="3837" to-port="0" />
		<edge from-layer="3833" from-port="0" to-layer="3836" to-port="1" />
		<edge from-layer="3834" from-port="0" to-layer="3836" to-port="2" />
		<edge from-layer="3835" from-port="0" to-layer="3836" to-port="3" />
		<edge from-layer="3836" from-port="4" to-layer="3837" to-port="1" />
		<edge from-layer="3837" from-port="2" to-layer="3838" to-port="0" />
		<edge from-layer="3838" from-port="1" to-layer="3840" to-port="0" />
		<edge from-layer="3839" from-port="0" to-layer="3840" to-port="2" />
		<edge from-layer="3840" from-port="3" to-layer="3877" to-port="0" />
		<edge from-layer="3841" from-port="0" to-layer="3857" to-port="0" />
		<edge from-layer="3842" from-port="0" to-layer="3843" to-port="0" />
		<edge from-layer="3843" from-port="1" to-layer="3844" to-port="1" />
		<edge from-layer="3844" from-port="2" to-layer="3846" to-port="0" />
		<edge from-layer="3845" from-port="0" to-layer="3846" to-port="1" />
		<edge from-layer="3846" from-port="2" to-layer="3849" to-port="0" />
		<edge from-layer="3846" from-port="2" to-layer="3856" to-port="0" />
		<edge from-layer="3847" from-port="0" to-layer="3855" to-port="0" />
		<edge from-layer="3848" from-port="0" to-layer="3849" to-port="1" />
		<edge from-layer="3849" from-port="2" to-layer="3851" to-port="0" />
		<edge from-layer="3850" from-port="0" to-layer="3851" to-port="1" />
		<edge from-layer="3851" from-port="2" to-layer="3853" to-port="0" />
		<edge from-layer="3852" from-port="0" to-layer="3853" to-port="1" />
		<edge from-layer="3853" from-port="2" to-layer="3854" to-port="0" />
		<edge from-layer="3854" from-port="1" to-layer="3855" to-port="1" />
		<edge from-layer="3855" from-port="2" to-layer="3856" to-port="1" />
		<edge from-layer="3856" from-port="2" to-layer="3857" to-port="1" />
		<edge from-layer="3857" from-port="2" to-layer="3859" to-port="0" />
		<edge from-layer="3858" from-port="0" to-layer="3859" to-port="1" />
		<edge from-layer="3859" from-port="2" to-layer="3873" to-port="0" />
		<edge from-layer="3859" from-port="2" to-layer="3865" to-port="0" />
		<edge from-layer="3859" from-port="2" to-layer="3860" to-port="0" />
		<edge from-layer="3860" from-port="2" to-layer="3876" to-port="0" />
		<edge from-layer="3861" from-port="0" to-layer="3865" to-port="1" />
		<edge from-layer="3862" from-port="0" to-layer="3865" to-port="2" />
		<edge from-layer="3863" from-port="0" to-layer="3865" to-port="3" />
		<edge from-layer="3864" from-port="0" to-layer="3865" to-port="4" />
		<edge from-layer="3865" from-port="5" to-layer="3868" to-port="0" />
		<edge from-layer="3866" from-port="0" to-layer="3867" to-port="0" />
		<edge from-layer="3867" from-port="1" to-layer="3868" to-port="1" />
		<edge from-layer="3868" from-port="2" to-layer="3874" to-port="0" />
		<edge from-layer="3869" from-port="0" to-layer="3873" to-port="1" />
		<edge from-layer="3870" from-port="0" to-layer="3873" to-port="2" />
		<edge from-layer="3871" from-port="0" to-layer="3873" to-port="3" />
		<edge from-layer="3872" from-port="0" to-layer="3873" to-port="4" />
		<edge from-layer="3873" from-port="5" to-layer="3874" to-port="1" />
		<edge from-layer="3874" from-port="2" to-layer="3875" to-port="0" />
		<edge from-layer="3875" from-port="2" to-layer="3876" to-port="1" />
		<edge from-layer="3876" from-port="2" to-layer="3877" to-port="1" />
		<edge from-layer="3877" from-port="2" to-layer="3878" to-port="0" />
		<edge from-layer="3877" from-port="2" to-layer="4312" to-port="0" />
		<edge from-layer="3878" from-port="2" to-layer="3879" to-port="0" />
		<edge from-layer="3879" from-port="2" to-layer="3881" to-port="0" />
		<edge from-layer="3880" from-port="0" to-layer="3881" to-port="1" />
		<edge from-layer="3881" from-port="2" to-layer="3903" to-port="1" />
		<edge from-layer="3882" from-port="0" to-layer="3887" to-port="0" />
		<edge from-layer="3883" from-port="0" to-layer="3886" to-port="1" />
		<edge from-layer="3884" from-port="0" to-layer="3886" to-port="2" />
		<edge from-layer="3885" from-port="0" to-layer="3886" to-port="3" />
		<edge from-layer="3886" from-port="4" to-layer="3887" to-port="1" />
		<edge from-layer="3887" from-port="2" to-layer="3888" to-port="0" />
		<edge from-layer="3888" from-port="1" to-layer="3890" to-port="0" />
		<edge from-layer="3889" from-port="0" to-layer="3890" to-port="2" />
		<edge from-layer="3890" from-port="3" to-layer="3898" to-port="0" />
		<edge from-layer="3891" from-port="0" to-layer="3892" to-port="0" />
		<edge from-layer="3892" from-port="1" to-layer="3893" to-port="1" />
		<edge from-layer="3893" from-port="2" to-layer="3895" to-port="0" />
		<edge from-layer="3894" from-port="0" to-layer="3895" to-port="1" />
		<edge from-layer="3895" from-port="2" to-layer="3897" to-port="0" />
		<edge from-layer="3896" from-port="0" to-layer="3897" to-port="1" />
		<edge from-layer="3897" from-port="2" to-layer="3898" to-port="1" />
		<edge from-layer="3898" from-port="2" to-layer="3899" to-port="0" />
		<edge from-layer="3898" from-port="2" to-layer="4311" to-port="0" />
		<edge from-layer="3899" from-port="2" to-layer="3900" to-port="0" />
		<edge from-layer="3900" from-port="2" to-layer="3902" to-port="0" />
		<edge from-layer="3901" from-port="0" to-layer="3902" to-port="1" />
		<edge from-layer="3902" from-port="2" to-layer="3903" to-port="2" />
		<edge from-layer="3903" from-port="5" to-layer="3905" to-port="0" />
		<edge from-layer="3904" from-port="0" to-layer="3905" to-port="1" />
		<edge from-layer="3905" from-port="2" to-layer="3907" to-port="0" />
		<edge from-layer="3906" from-port="0" to-layer="3907" to-port="1" />
		<edge from-layer="3907" from-port="2" to-layer="3910" to-port="0" />
		<edge from-layer="3908" from-port="0" to-layer="3909" to-port="0" />
		<edge from-layer="3909" from-port="1" to-layer="3910" to-port="1" />
		<edge from-layer="3910" from-port="2" to-layer="3911" to-port="1" />
		<edge from-layer="3911" from-port="2" to-layer="3935" to-port="0" />
		<edge from-layer="3911" from-port="2" to-layer="3922" to-port="0" />
		<edge from-layer="3911" from-port="2" to-layer="3915" to-port="0" />
		<edge from-layer="3912" from-port="0" to-layer="3923" to-port="0" />
		<edge from-layer="3913" from-port="0" to-layer="3921" to-port="0" />
		<edge from-layer="3914" from-port="0" to-layer="3915" to-port="1" />
		<edge from-layer="3915" from-port="2" to-layer="3917" to-port="0" />
		<edge from-layer="3916" from-port="0" to-layer="3917" to-port="1" />
		<edge from-layer="3917" from-port="2" to-layer="3919" to-port="0" />
		<edge from-layer="3918" from-port="0" to-layer="3919" to-port="1" />
		<edge from-layer="3919" from-port="2" to-layer="3920" to-port="0" />
		<edge from-layer="3920" from-port="1" to-layer="3921" to-port="1" />
		<edge from-layer="3921" from-port="2" to-layer="3922" to-port="1" />
		<edge from-layer="3922" from-port="2" to-layer="3923" to-port="1" />
		<edge from-layer="3923" from-port="2" to-layer="3926" to-port="0" />
		<edge from-layer="3923" from-port="2" to-layer="3930" to-port="0" />
		<edge from-layer="3924" from-port="0" to-layer="3925" to-port="0" />
		<edge from-layer="3925" from-port="1" to-layer="3926" to-port="1" />
		<edge from-layer="3926" from-port="2" to-layer="3927" to-port="0" />
		<edge from-layer="3927" from-port="1" to-layer="3931" to-port="0" />
		<edge from-layer="3928" from-port="0" to-layer="3929" to-port="0" />
		<edge from-layer="3929" from-port="1" to-layer="3930" to-port="1" />
		<edge from-layer="3930" from-port="2" to-layer="3931" to-port="1" />
		<edge from-layer="3931" from-port="2" to-layer="3934" to-port="0" />
		<edge from-layer="3932" from-port="0" to-layer="3933" to-port="0" />
		<edge from-layer="3933" from-port="1" to-layer="3934" to-port="1" />
		<edge from-layer="3934" from-port="2" to-layer="3935" to-port="1" />
		<edge from-layer="3935" from-port="2" to-layer="3940" to-port="0" />
		<edge from-layer="3935" from-port="2" to-layer="3947" to-port="0" />
		<edge from-layer="3935" from-port="2" to-layer="4063" to-port="0" />
		<edge from-layer="3936" from-port="0" to-layer="3964" to-port="0" />
		<edge from-layer="3937" from-port="0" to-layer="3948" to-port="0" />
		<edge from-layer="3938" from-port="0" to-layer="3946" to-port="0" />
		<edge from-layer="3939" from-port="0" to-layer="3940" to-port="1" />
		<edge from-layer="3940" from-port="2" to-layer="3942" to-port="0" />
		<edge from-layer="3941" from-port="0" to-layer="3942" to-port="1" />
		<edge from-layer="3942" from-port="2" to-layer="3944" to-port="0" />
		<edge from-layer="3943" from-port="0" to-layer="3944" to-port="1" />
		<edge from-layer="3944" from-port="2" to-layer="3945" to-port="0" />
		<edge from-layer="3945" from-port="1" to-layer="3946" to-port="1" />
		<edge from-layer="3946" from-port="2" to-layer="3947" to-port="1" />
		<edge from-layer="3947" from-port="2" to-layer="3948" to-port="1" />
		<edge from-layer="3948" from-port="2" to-layer="3951" to-port="0" />
		<edge from-layer="3948" from-port="2" to-layer="4045" to-port="0" />
		<edge from-layer="3948" from-port="2" to-layer="3996" to-port="0" />
		<edge from-layer="3949" from-port="0" to-layer="3950" to-port="0" />
		<edge from-layer="3950" from-port="1" to-layer="3951" to-port="1" />
		<edge from-layer="3951" from-port="2" to-layer="3953" to-port="0" />
		<edge from-layer="3952" from-port="0" to-layer="3953" to-port="1" />
		<edge from-layer="3953" from-port="2" to-layer="3963" to-port="0" />
		<edge from-layer="3953" from-port="2" to-layer="3956" to-port="0" />
		<edge from-layer="3954" from-port="0" to-layer="3962" to-port="0" />
		<edge from-layer="3955" from-port="0" to-layer="3956" to-port="1" />
		<edge from-layer="3956" from-port="2" to-layer="3958" to-port="0" />
		<edge from-layer="3957" from-port="0" to-layer="3958" to-port="1" />
		<edge from-layer="3958" from-port="2" to-layer="3960" to-port="0" />
		<edge from-layer="3959" from-port="0" to-layer="3960" to-port="1" />
		<edge from-layer="3960" from-port="2" to-layer="3961" to-port="0" />
		<edge from-layer="3961" from-port="1" to-layer="3962" to-port="1" />
		<edge from-layer="3962" from-port="2" to-layer="3963" to-port="1" />
		<edge from-layer="3963" from-port="2" to-layer="3964" to-port="1" />
		<edge from-layer="3964" from-port="2" to-layer="3966" to-port="0" />
		<edge from-layer="3965" from-port="0" to-layer="3966" to-port="1" />
		<edge from-layer="3966" from-port="2" to-layer="3967" to-port="0" />
		<edge from-layer="3966" from-port="2" to-layer="3980" to-port="0" />
		<edge from-layer="3966" from-port="2" to-layer="3972" to-port="0" />
		<edge from-layer="3967" from-port="2" to-layer="3983" to-port="0" />
		<edge from-layer="3968" from-port="0" to-layer="3972" to-port="1" />
		<edge from-layer="3969" from-port="0" to-layer="3972" to-port="2" />
		<edge from-layer="3970" from-port="0" to-layer="3972" to-port="3" />
		<edge from-layer="3971" from-port="0" to-layer="3972" to-port="4" />
		<edge from-layer="3972" from-port="5" to-layer="3975" to-port="0" />
		<edge from-layer="3973" from-port="0" to-layer="3974" to-port="0" />
		<edge from-layer="3974" from-port="1" to-layer="3975" to-port="1" />
		<edge from-layer="3975" from-port="2" to-layer="3981" to-port="0" />
		<edge from-layer="3976" from-port="0" to-layer="3980" to-port="1" />
		<edge from-layer="3977" from-port="0" to-layer="3980" to-port="2" />
		<edge from-layer="3978" from-port="0" to-layer="3980" to-port="3" />
		<edge from-layer="3979" from-port="0" to-layer="3980" to-port="4" />
		<edge from-layer="3980" from-port="5" to-layer="3981" to-port="1" />
		<edge from-layer="3981" from-port="2" to-layer="3982" to-port="0" />
		<edge from-layer="3982" from-port="2" to-layer="3983" to-port="1" />
		<edge from-layer="3983" from-port="2" to-layer="4055" to-port="0" />
		<edge from-layer="3984" from-port="0" to-layer="3989" to-port="0" />
		<edge from-layer="3985" from-port="0" to-layer="3988" to-port="1" />
		<edge from-layer="3986" from-port="0" to-layer="3988" to-port="2" />
		<edge from-layer="3987" from-port="0" to-layer="3988" to-port="3" />
		<edge from-layer="3988" from-port="4" to-layer="3989" to-port="1" />
		<edge from-layer="3989" from-port="2" to-layer="3990" to-port="0" />
		<edge from-layer="3990" from-port="1" to-layer="3992" to-port="0" />
		<edge from-layer="3991" from-port="0" to-layer="3992" to-port="2" />
		<edge from-layer="3992" from-port="3" to-layer="4029" to-port="0" />
		<edge from-layer="3993" from-port="0" to-layer="4009" to-port="0" />
		<edge from-layer="3994" from-port="0" to-layer="3995" to-port="0" />
		<edge from-layer="3995" from-port="1" to-layer="3996" to-port="1" />
		<edge from-layer="3996" from-port="2" to-layer="3998" to-port="0" />
		<edge from-layer="3997" from-port="0" to-layer="3998" to-port="1" />
		<edge from-layer="3998" from-port="2" to-layer="4001" to-port="0" />
		<edge from-layer="3998" from-port="2" to-layer="4008" to-port="0" />
		<edge from-layer="3999" from-port="0" to-layer="4007" to-port="0" />
		<edge from-layer="4000" from-port="0" to-layer="4001" to-port="1" />
		<edge from-layer="4001" from-port="2" to-layer="4003" to-port="0" />
		<edge from-layer="4002" from-port="0" to-layer="4003" to-port="1" />
		<edge from-layer="4003" from-port="2" to-layer="4005" to-port="0" />
		<edge from-layer="4004" from-port="0" to-layer="4005" to-port="1" />
		<edge from-layer="4005" from-port="2" to-layer="4006" to-port="0" />
		<edge from-layer="4006" from-port="1" to-layer="4007" to-port="1" />
		<edge from-layer="4007" from-port="2" to-layer="4008" to-port="1" />
		<edge from-layer="4008" from-port="2" to-layer="4009" to-port="1" />
		<edge from-layer="4009" from-port="2" to-layer="4011" to-port="0" />
		<edge from-layer="4010" from-port="0" to-layer="4011" to-port="1" />
		<edge from-layer="4011" from-port="2" to-layer="4012" to-port="0" />
		<edge from-layer="4011" from-port="2" to-layer="4017" to-port="0" />
		<edge from-layer="4011" from-port="2" to-layer="4025" to-port="0" />
		<edge from-layer="4012" from-port="2" to-layer="4028" to-port="0" />
		<edge from-layer="4013" from-port="0" to-layer="4017" to-port="1" />
		<edge from-layer="4014" from-port="0" to-layer="4017" to-port="2" />
		<edge from-layer="4015" from-port="0" to-layer="4017" to-port="3" />
		<edge from-layer="4016" from-port="0" to-layer="4017" to-port="4" />
		<edge from-layer="4017" from-port="5" to-layer="4020" to-port="0" />
		<edge from-layer="4018" from-port="0" to-layer="4019" to-port="0" />
		<edge from-layer="4019" from-port="1" to-layer="4020" to-port="1" />
		<edge from-layer="4020" from-port="2" to-layer="4026" to-port="0" />
		<edge from-layer="4021" from-port="0" to-layer="4025" to-port="1" />
		<edge from-layer="4022" from-port="0" to-layer="4025" to-port="2" />
		<edge from-layer="4023" from-port="0" to-layer="4025" to-port="3" />
		<edge from-layer="4024" from-port="0" to-layer="4025" to-port="4" />
		<edge from-layer="4025" from-port="5" to-layer="4026" to-port="1" />
		<edge from-layer="4026" from-port="2" to-layer="4027" to-port="0" />
		<edge from-layer="4027" from-port="2" to-layer="4028" to-port="1" />
		<edge from-layer="4028" from-port="2" to-layer="4029" to-port="1" />
		<edge from-layer="4029" from-port="2" to-layer="4030" to-port="0" />
		<edge from-layer="4029" from-port="2" to-layer="4310" to-port="0" />
		<edge from-layer="4030" from-port="2" to-layer="4031" to-port="0" />
		<edge from-layer="4031" from-port="2" to-layer="4033" to-port="0" />
		<edge from-layer="4032" from-port="0" to-layer="4033" to-port="1" />
		<edge from-layer="4033" from-port="2" to-layer="4055" to-port="1" />
		<edge from-layer="4034" from-port="0" to-layer="4039" to-port="0" />
		<edge from-layer="4035" from-port="0" to-layer="4038" to-port="1" />
		<edge from-layer="4036" from-port="0" to-layer="4038" to-port="2" />
		<edge from-layer="4037" from-port="0" to-layer="4038" to-port="3" />
		<edge from-layer="4038" from-port="4" to-layer="4039" to-port="1" />
		<edge from-layer="4039" from-port="2" to-layer="4040" to-port="0" />
		<edge from-layer="4040" from-port="1" to-layer="4042" to-port="0" />
		<edge from-layer="4041" from-port="0" to-layer="4042" to-port="2" />
		<edge from-layer="4042" from-port="3" to-layer="4050" to-port="0" />
		<edge from-layer="4043" from-port="0" to-layer="4044" to-port="0" />
		<edge from-layer="4044" from-port="1" to-layer="4045" to-port="1" />
		<edge from-layer="4045" from-port="2" to-layer="4047" to-port="0" />
		<edge from-layer="4046" from-port="0" to-layer="4047" to-port="1" />
		<edge from-layer="4047" from-port="2" to-layer="4049" to-port="0" />
		<edge from-layer="4048" from-port="0" to-layer="4049" to-port="1" />
		<edge from-layer="4049" from-port="2" to-layer="4050" to-port="1" />
		<edge from-layer="4050" from-port="2" to-layer="4309" to-port="0" />
		<edge from-layer="4050" from-port="2" to-layer="4051" to-port="0" />
		<edge from-layer="4051" from-port="2" to-layer="4052" to-port="0" />
		<edge from-layer="4052" from-port="2" to-layer="4054" to-port="0" />
		<edge from-layer="4053" from-port="0" to-layer="4054" to-port="1" />
		<edge from-layer="4054" from-port="2" to-layer="4055" to-port="2" />
		<edge from-layer="4055" from-port="5" to-layer="4057" to-port="0" />
		<edge from-layer="4056" from-port="0" to-layer="4057" to-port="1" />
		<edge from-layer="4057" from-port="2" to-layer="4059" to-port="0" />
		<edge from-layer="4058" from-port="0" to-layer="4059" to-port="1" />
		<edge from-layer="4059" from-port="2" to-layer="4062" to-port="0" />
		<edge from-layer="4060" from-port="0" to-layer="4061" to-port="0" />
		<edge from-layer="4061" from-port="1" to-layer="4062" to-port="1" />
		<edge from-layer="4062" from-port="2" to-layer="4063" to-port="1" />
		<edge from-layer="4063" from-port="2" to-layer="4067" to-port="0" />
		<edge from-layer="4063" from-port="2" to-layer="4074" to-port="0" />
		<edge from-layer="4063" from-port="2" to-layer="4087" to-port="0" />
		<edge from-layer="4064" from-port="0" to-layer="4075" to-port="0" />
		<edge from-layer="4065" from-port="0" to-layer="4073" to-port="0" />
		<edge from-layer="4066" from-port="0" to-layer="4067" to-port="1" />
		<edge from-layer="4067" from-port="2" to-layer="4069" to-port="0" />
		<edge from-layer="4068" from-port="0" to-layer="4069" to-port="1" />
		<edge from-layer="4069" from-port="2" to-layer="4071" to-port="0" />
		<edge from-layer="4070" from-port="0" to-layer="4071" to-port="1" />
		<edge from-layer="4071" from-port="2" to-layer="4072" to-port="0" />
		<edge from-layer="4072" from-port="1" to-layer="4073" to-port="1" />
		<edge from-layer="4073" from-port="2" to-layer="4074" to-port="1" />
		<edge from-layer="4074" from-port="2" to-layer="4075" to-port="1" />
		<edge from-layer="4075" from-port="2" to-layer="4078" to-port="0" />
		<edge from-layer="4075" from-port="2" to-layer="4082" to-port="0" />
		<edge from-layer="4076" from-port="0" to-layer="4077" to-port="0" />
		<edge from-layer="4077" from-port="1" to-layer="4078" to-port="1" />
		<edge from-layer="4078" from-port="2" to-layer="4079" to-port="0" />
		<edge from-layer="4079" from-port="1" to-layer="4083" to-port="0" />
		<edge from-layer="4080" from-port="0" to-layer="4081" to-port="0" />
		<edge from-layer="4081" from-port="1" to-layer="4082" to-port="1" />
		<edge from-layer="4082" from-port="2" to-layer="4083" to-port="1" />
		<edge from-layer="4083" from-port="2" to-layer="4086" to-port="0" />
		<edge from-layer="4084" from-port="0" to-layer="4085" to-port="0" />
		<edge from-layer="4085" from-port="1" to-layer="4086" to-port="1" />
		<edge from-layer="4086" from-port="2" to-layer="4087" to-port="1" />
		<edge from-layer="4087" from-port="2" to-layer="4092" to-port="0" />
		<edge from-layer="4087" from-port="2" to-layer="4215" to-port="0" />
		<edge from-layer="4087" from-port="2" to-layer="4099" to-port="0" />
		<edge from-layer="4088" from-port="0" to-layer="4116" to-port="0" />
		<edge from-layer="4089" from-port="0" to-layer="4100" to-port="0" />
		<edge from-layer="4090" from-port="0" to-layer="4098" to-port="0" />
		<edge from-layer="4091" from-port="0" to-layer="4092" to-port="1" />
		<edge from-layer="4092" from-port="2" to-layer="4094" to-port="0" />
		<edge from-layer="4093" from-port="0" to-layer="4094" to-port="1" />
		<edge from-layer="4094" from-port="2" to-layer="4096" to-port="0" />
		<edge from-layer="4095" from-port="0" to-layer="4096" to-port="1" />
		<edge from-layer="4096" from-port="2" to-layer="4097" to-port="0" />
		<edge from-layer="4097" from-port="1" to-layer="4098" to-port="1" />
		<edge from-layer="4098" from-port="2" to-layer="4099" to-port="1" />
		<edge from-layer="4099" from-port="2" to-layer="4100" to-port="1" />
		<edge from-layer="4100" from-port="2" to-layer="4103" to-port="0" />
		<edge from-layer="4100" from-port="2" to-layer="4197" to-port="0" />
		<edge from-layer="4100" from-port="2" to-layer="4148" to-port="0" />
		<edge from-layer="4101" from-port="0" to-layer="4102" to-port="0" />
		<edge from-layer="4102" from-port="1" to-layer="4103" to-port="1" />
		<edge from-layer="4103" from-port="2" to-layer="4105" to-port="0" />
		<edge from-layer="4104" from-port="0" to-layer="4105" to-port="1" />
		<edge from-layer="4105" from-port="2" to-layer="4108" to-port="0" />
		<edge from-layer="4105" from-port="2" to-layer="4115" to-port="0" />
		<edge from-layer="4106" from-port="0" to-layer="4114" to-port="0" />
		<edge from-layer="4107" from-port="0" to-layer="4108" to-port="1" />
		<edge from-layer="4108" from-port="2" to-layer="4110" to-port="0" />
		<edge from-layer="4109" from-port="0" to-layer="4110" to-port="1" />
		<edge from-layer="4110" from-port="2" to-layer="4112" to-port="0" />
		<edge from-layer="4111" from-port="0" to-layer="4112" to-port="1" />
		<edge from-layer="4112" from-port="2" to-layer="4113" to-port="0" />
		<edge from-layer="4113" from-port="1" to-layer="4114" to-port="1" />
		<edge from-layer="4114" from-port="2" to-layer="4115" to-port="1" />
		<edge from-layer="4115" from-port="2" to-layer="4116" to-port="1" />
		<edge from-layer="4116" from-port="2" to-layer="4118" to-port="0" />
		<edge from-layer="4117" from-port="0" to-layer="4118" to-port="1" />
		<edge from-layer="4118" from-port="2" to-layer="4119" to-port="0" />
		<edge from-layer="4118" from-port="2" to-layer="4124" to-port="0" />
		<edge from-layer="4118" from-port="2" to-layer="4132" to-port="0" />
		<edge from-layer="4119" from-port="2" to-layer="4135" to-port="0" />
		<edge from-layer="4120" from-port="0" to-layer="4124" to-port="1" />
		<edge from-layer="4121" from-port="0" to-layer="4124" to-port="2" />
		<edge from-layer="4122" from-port="0" to-layer="4124" to-port="3" />
		<edge from-layer="4123" from-port="0" to-layer="4124" to-port="4" />
		<edge from-layer="4124" from-port="5" to-layer="4127" to-port="0" />
		<edge from-layer="4125" from-port="0" to-layer="4126" to-port="0" />
		<edge from-layer="4126" from-port="1" to-layer="4127" to-port="1" />
		<edge from-layer="4127" from-port="2" to-layer="4133" to-port="0" />
		<edge from-layer="4128" from-port="0" to-layer="4132" to-port="1" />
		<edge from-layer="4129" from-port="0" to-layer="4132" to-port="2" />
		<edge from-layer="4130" from-port="0" to-layer="4132" to-port="3" />
		<edge from-layer="4131" from-port="0" to-layer="4132" to-port="4" />
		<edge from-layer="4132" from-port="5" to-layer="4133" to-port="1" />
		<edge from-layer="4133" from-port="2" to-layer="4134" to-port="0" />
		<edge from-layer="4134" from-port="2" to-layer="4135" to-port="1" />
		<edge from-layer="4135" from-port="2" to-layer="4207" to-port="0" />
		<edge from-layer="4136" from-port="0" to-layer="4141" to-port="0" />
		<edge from-layer="4137" from-port="0" to-layer="4140" to-port="1" />
		<edge from-layer="4138" from-port="0" to-layer="4140" to-port="2" />
		<edge from-layer="4139" from-port="0" to-layer="4140" to-port="3" />
		<edge from-layer="4140" from-port="4" to-layer="4141" to-port="1" />
		<edge from-layer="4141" from-port="2" to-layer="4142" to-port="0" />
		<edge from-layer="4142" from-port="1" to-layer="4144" to-port="0" />
		<edge from-layer="4143" from-port="0" to-layer="4144" to-port="2" />
		<edge from-layer="4144" from-port="3" to-layer="4181" to-port="0" />
		<edge from-layer="4145" from-port="0" to-layer="4161" to-port="0" />
		<edge from-layer="4146" from-port="0" to-layer="4147" to-port="0" />
		<edge from-layer="4147" from-port="1" to-layer="4148" to-port="1" />
		<edge from-layer="4148" from-port="2" to-layer="4150" to-port="0" />
		<edge from-layer="4149" from-port="0" to-layer="4150" to-port="1" />
		<edge from-layer="4150" from-port="2" to-layer="4160" to-port="0" />
		<edge from-layer="4150" from-port="2" to-layer="4153" to-port="0" />
		<edge from-layer="4151" from-port="0" to-layer="4159" to-port="0" />
		<edge from-layer="4152" from-port="0" to-layer="4153" to-port="1" />
		<edge from-layer="4153" from-port="2" to-layer="4155" to-port="0" />
		<edge from-layer="4154" from-port="0" to-layer="4155" to-port="1" />
		<edge from-layer="4155" from-port="2" to-layer="4157" to-port="0" />
		<edge from-layer="4156" from-port="0" to-layer="4157" to-port="1" />
		<edge from-layer="4157" from-port="2" to-layer="4158" to-port="0" />
		<edge from-layer="4158" from-port="1" to-layer="4159" to-port="1" />
		<edge from-layer="4159" from-port="2" to-layer="4160" to-port="1" />
		<edge from-layer="4160" from-port="2" to-layer="4161" to-port="1" />
		<edge from-layer="4161" from-port="2" to-layer="4163" to-port="0" />
		<edge from-layer="4162" from-port="0" to-layer="4163" to-port="1" />
		<edge from-layer="4163" from-port="2" to-layer="4177" to-port="0" />
		<edge from-layer="4163" from-port="2" to-layer="4169" to-port="0" />
		<edge from-layer="4163" from-port="2" to-layer="4164" to-port="0" />
		<edge from-layer="4164" from-port="2" to-layer="4180" to-port="0" />
		<edge from-layer="4165" from-port="0" to-layer="4169" to-port="1" />
		<edge from-layer="4166" from-port="0" to-layer="4169" to-port="2" />
		<edge from-layer="4167" from-port="0" to-layer="4169" to-port="3" />
		<edge from-layer="4168" from-port="0" to-layer="4169" to-port="4" />
		<edge from-layer="4169" from-port="5" to-layer="4172" to-port="0" />
		<edge from-layer="4170" from-port="0" to-layer="4171" to-port="0" />
		<edge from-layer="4171" from-port="1" to-layer="4172" to-port="1" />
		<edge from-layer="4172" from-port="2" to-layer="4178" to-port="0" />
		<edge from-layer="4173" from-port="0" to-layer="4177" to-port="1" />
		<edge from-layer="4174" from-port="0" to-layer="4177" to-port="2" />
		<edge from-layer="4175" from-port="0" to-layer="4177" to-port="3" />
		<edge from-layer="4176" from-port="0" to-layer="4177" to-port="4" />
		<edge from-layer="4177" from-port="5" to-layer="4178" to-port="1" />
		<edge from-layer="4178" from-port="2" to-layer="4179" to-port="0" />
		<edge from-layer="4179" from-port="2" to-layer="4180" to-port="1" />
		<edge from-layer="4180" from-port="2" to-layer="4181" to-port="1" />
		<edge from-layer="4181" from-port="2" to-layer="4308" to-port="0" />
		<edge from-layer="4181" from-port="2" to-layer="4182" to-port="0" />
		<edge from-layer="4182" from-port="2" to-layer="4183" to-port="0" />
		<edge from-layer="4183" from-port="2" to-layer="4185" to-port="0" />
		<edge from-layer="4184" from-port="0" to-layer="4185" to-port="1" />
		<edge from-layer="4185" from-port="2" to-layer="4207" to-port="1" />
		<edge from-layer="4186" from-port="0" to-layer="4191" to-port="0" />
		<edge from-layer="4187" from-port="0" to-layer="4190" to-port="1" />
		<edge from-layer="4188" from-port="0" to-layer="4190" to-port="2" />
		<edge from-layer="4189" from-port="0" to-layer="4190" to-port="3" />
		<edge from-layer="4190" from-port="4" to-layer="4191" to-port="1" />
		<edge from-layer="4191" from-port="2" to-layer="4192" to-port="0" />
		<edge from-layer="4192" from-port="1" to-layer="4194" to-port="0" />
		<edge from-layer="4193" from-port="0" to-layer="4194" to-port="2" />
		<edge from-layer="4194" from-port="3" to-layer="4202" to-port="0" />
		<edge from-layer="4195" from-port="0" to-layer="4196" to-port="0" />
		<edge from-layer="4196" from-port="1" to-layer="4197" to-port="1" />
		<edge from-layer="4197" from-port="2" to-layer="4199" to-port="0" />
		<edge from-layer="4198" from-port="0" to-layer="4199" to-port="1" />
		<edge from-layer="4199" from-port="2" to-layer="4201" to-port="0" />
		<edge from-layer="4200" from-port="0" to-layer="4201" to-port="1" />
		<edge from-layer="4201" from-port="2" to-layer="4202" to-port="1" />
		<edge from-layer="4202" from-port="2" to-layer="4203" to-port="0" />
		<edge from-layer="4202" from-port="2" to-layer="4307" to-port="0" />
		<edge from-layer="4203" from-port="2" to-layer="4204" to-port="0" />
		<edge from-layer="4204" from-port="2" to-layer="4206" to-port="0" />
		<edge from-layer="4205" from-port="0" to-layer="4206" to-port="1" />
		<edge from-layer="4206" from-port="2" to-layer="4207" to-port="2" />
		<edge from-layer="4207" from-port="5" to-layer="4209" to-port="0" />
		<edge from-layer="4208" from-port="0" to-layer="4209" to-port="1" />
		<edge from-layer="4209" from-port="2" to-layer="4211" to-port="0" />
		<edge from-layer="4210" from-port="0" to-layer="4211" to-port="1" />
		<edge from-layer="4211" from-port="2" to-layer="4214" to-port="0" />
		<edge from-layer="4212" from-port="0" to-layer="4213" to-port="0" />
		<edge from-layer="4213" from-port="1" to-layer="4214" to-port="1" />
		<edge from-layer="4214" from-port="2" to-layer="4215" to-port="1" />
		<edge from-layer="4215" from-port="2" to-layer="4239" to-port="0" />
		<edge from-layer="4215" from-port="2" to-layer="4226" to-port="0" />
		<edge from-layer="4215" from-port="2" to-layer="4219" to-port="0" />
		<edge from-layer="4216" from-port="0" to-layer="4227" to-port="0" />
		<edge from-layer="4217" from-port="0" to-layer="4225" to-port="0" />
		<edge from-layer="4218" from-port="0" to-layer="4219" to-port="1" />
		<edge from-layer="4219" from-port="2" to-layer="4221" to-port="0" />
		<edge from-layer="4220" from-port="0" to-layer="4221" to-port="1" />
		<edge from-layer="4221" from-port="2" to-layer="4223" to-port="0" />
		<edge from-layer="4222" from-port="0" to-layer="4223" to-port="1" />
		<edge from-layer="4223" from-port="2" to-layer="4224" to-port="0" />
		<edge from-layer="4224" from-port="1" to-layer="4225" to-port="1" />
		<edge from-layer="4225" from-port="2" to-layer="4226" to-port="1" />
		<edge from-layer="4226" from-port="2" to-layer="4227" to-port="1" />
		<edge from-layer="4227" from-port="2" to-layer="4230" to-port="0" />
		<edge from-layer="4227" from-port="2" to-layer="4234" to-port="0" />
		<edge from-layer="4228" from-port="0" to-layer="4229" to-port="0" />
		<edge from-layer="4229" from-port="1" to-layer="4230" to-port="1" />
		<edge from-layer="4230" from-port="2" to-layer="4231" to-port="0" />
		<edge from-layer="4231" from-port="1" to-layer="4235" to-port="0" />
		<edge from-layer="4232" from-port="0" to-layer="4233" to-port="0" />
		<edge from-layer="4233" from-port="1" to-layer="4234" to-port="1" />
		<edge from-layer="4234" from-port="2" to-layer="4235" to-port="1" />
		<edge from-layer="4235" from-port="2" to-layer="4238" to-port="0" />
		<edge from-layer="4236" from-port="0" to-layer="4237" to-port="0" />
		<edge from-layer="4237" from-port="1" to-layer="4238" to-port="1" />
		<edge from-layer="4238" from-port="2" to-layer="4239" to-port="1" />
		<edge from-layer="4239" from-port="2" to-layer="4242" to-port="0" />
		<edge from-layer="4239" from-port="2" to-layer="4400" to-port="0" />
		<edge from-layer="4239" from-port="2" to-layer="4249" to-port="0" />
		<edge from-layer="4240" from-port="0" to-layer="4248" to-port="0" />
		<edge from-layer="4241" from-port="0" to-layer="4242" to-port="1" />
		<edge from-layer="4242" from-port="2" to-layer="4244" to-port="0" />
		<edge from-layer="4243" from-port="0" to-layer="4244" to-port="1" />
		<edge from-layer="4244" from-port="2" to-layer="4246" to-port="0" />
		<edge from-layer="4245" from-port="0" to-layer="4246" to-port="1" />
		<edge from-layer="4246" from-port="2" to-layer="4247" to-port="0" />
		<edge from-layer="4247" from-port="1" to-layer="4248" to-port="1" />
		<edge from-layer="4248" from-port="2" to-layer="4249" to-port="1" />
		<edge from-layer="4249" from-port="2" to-layer="4250" to-port="1" />
		<edge from-layer="4250" from-port="2" to-layer="4253" to-port="0" />
		<edge from-layer="4250" from-port="2" to-layer="4272" to-port="0" />
		<edge from-layer="4250" from-port="2" to-layer="4351" to-port="0" />
		<edge from-layer="4251" from-port="0" to-layer="4252" to-port="0" />
		<edge from-layer="4252" from-port="1" to-layer="4253" to-port="1" />
		<edge from-layer="4253" from-port="2" to-layer="4255" to-port="0" />
		<edge from-layer="4254" from-port="0" to-layer="4255" to-port="1" />
		<edge from-layer="4255" from-port="2" to-layer="4257" to-port="0" />
		<edge from-layer="4256" from-port="0" to-layer="4257" to-port="1" />
		<edge from-layer="4257" from-port="2" to-layer="4258" to-port="1" />
		<edge from-layer="4258" from-port="2" to-layer="4259" to-port="0" />
		<edge from-layer="4258" from-port="2" to-layer="4388" to-port="0" />
		<edge from-layer="4260" from-port="0" to-layer="4265" to-port="0" />
		<edge from-layer="4261" from-port="0" to-layer="4264" to-port="1" />
		<edge from-layer="4262" from-port="0" to-layer="4264" to-port="2" />
		<edge from-layer="4263" from-port="0" to-layer="4264" to-port="3" />
		<edge from-layer="4264" from-port="4" to-layer="4265" to-port="1" />
		<edge from-layer="4265" from-port="2" to-layer="4266" to-port="0" />
		<edge from-layer="4266" from-port="1" to-layer="4268" to-port="0" />
		<edge from-layer="4267" from-port="0" to-layer="4268" to-port="2" />
		<edge from-layer="4268" from-port="3" to-layer="4305" to-port="0" />
		<edge from-layer="4269" from-port="0" to-layer="4285" to-port="0" />
		<edge from-layer="4270" from-port="0" to-layer="4271" to-port="0" />
		<edge from-layer="4271" from-port="1" to-layer="4272" to-port="1" />
		<edge from-layer="4272" from-port="2" to-layer="4274" to-port="0" />
		<edge from-layer="4273" from-port="0" to-layer="4274" to-port="1" />
		<edge from-layer="4274" from-port="2" to-layer="4284" to-port="0" />
		<edge from-layer="4274" from-port="2" to-layer="4277" to-port="0" />
		<edge from-layer="4275" from-port="0" to-layer="4283" to-port="0" />
		<edge from-layer="4276" from-port="0" to-layer="4277" to-port="1" />
		<edge from-layer="4277" from-port="2" to-layer="4279" to-port="0" />
		<edge from-layer="4278" from-port="0" to-layer="4279" to-port="1" />
		<edge from-layer="4279" from-port="2" to-layer="4281" to-port="0" />
		<edge from-layer="4280" from-port="0" to-layer="4281" to-port="1" />
		<edge from-layer="4281" from-port="2" to-layer="4282" to-port="0" />
		<edge from-layer="4282" from-port="1" to-layer="4283" to-port="1" />
		<edge from-layer="4283" from-port="2" to-layer="4284" to-port="1" />
		<edge from-layer="4284" from-port="2" to-layer="4285" to-port="1" />
		<edge from-layer="4285" from-port="2" to-layer="4287" to-port="0" />
		<edge from-layer="4286" from-port="0" to-layer="4287" to-port="1" />
		<edge from-layer="4287" from-port="2" to-layer="4288" to-port="0" />
		<edge from-layer="4287" from-port="2" to-layer="4293" to-port="0" />
		<edge from-layer="4287" from-port="2" to-layer="4301" to-port="0" />
		<edge from-layer="4288" from-port="2" to-layer="4304" to-port="0" />
		<edge from-layer="4289" from-port="0" to-layer="4293" to-port="1" />
		<edge from-layer="4290" from-port="0" to-layer="4293" to-port="2" />
		<edge from-layer="4291" from-port="0" to-layer="4293" to-port="3" />
		<edge from-layer="4292" from-port="0" to-layer="4293" to-port="4" />
		<edge from-layer="4293" from-port="5" to-layer="4296" to-port="0" />
		<edge from-layer="4294" from-port="0" to-layer="4295" to-port="0" />
		<edge from-layer="4295" from-port="1" to-layer="4296" to-port="1" />
		<edge from-layer="4296" from-port="2" to-layer="4302" to-port="0" />
		<edge from-layer="4297" from-port="0" to-layer="4301" to-port="1" />
		<edge from-layer="4298" from-port="0" to-layer="4301" to-port="2" />
		<edge from-layer="4299" from-port="0" to-layer="4301" to-port="3" />
		<edge from-layer="4300" from-port="0" to-layer="4301" to-port="4" />
		<edge from-layer="4301" from-port="5" to-layer="4302" to-port="1" />
		<edge from-layer="4302" from-port="2" to-layer="4303" to-port="0" />
		<edge from-layer="4303" from-port="2" to-layer="4304" to-port="1" />
		<edge from-layer="4304" from-port="2" to-layer="4305" to-port="1" />
		<edge from-layer="4305" from-port="2" to-layer="4306" to-port="0" />
		<edge from-layer="4305" from-port="2" to-layer="4384" to-port="0" />
		<edge from-layer="4347" from-port="0" to-layer="4435" to-port="0" />
		<edge from-layer="4348" from-port="0" to-layer="4364" to-port="0" />
		<edge from-layer="4349" from-port="0" to-layer="4350" to-port="0" />
		<edge from-layer="4350" from-port="1" to-layer="4351" to-port="1" />
		<edge from-layer="4351" from-port="2" to-layer="4353" to-port="0" />
		<edge from-layer="4352" from-port="0" to-layer="4353" to-port="1" />
		<edge from-layer="4353" from-port="2" to-layer="4356" to-port="0" />
		<edge from-layer="4353" from-port="2" to-layer="4363" to-port="0" />
		<edge from-layer="4354" from-port="0" to-layer="4362" to-port="0" />
		<edge from-layer="4355" from-port="0" to-layer="4356" to-port="1" />
		<edge from-layer="4356" from-port="2" to-layer="4358" to-port="0" />
		<edge from-layer="4357" from-port="0" to-layer="4358" to-port="1" />
		<edge from-layer="4358" from-port="2" to-layer="4360" to-port="0" />
		<edge from-layer="4359" from-port="0" to-layer="4360" to-port="1" />
		<edge from-layer="4360" from-port="2" to-layer="4361" to-port="0" />
		<edge from-layer="4361" from-port="1" to-layer="4362" to-port="1" />
		<edge from-layer="4362" from-port="2" to-layer="4363" to-port="1" />
		<edge from-layer="4363" from-port="2" to-layer="4364" to-port="1" />
		<edge from-layer="4364" from-port="2" to-layer="4366" to-port="0" />
		<edge from-layer="4365" from-port="0" to-layer="4366" to-port="1" />
		<edge from-layer="4366" from-port="2" to-layer="4367" to-port="0" />
		<edge from-layer="4366" from-port="2" to-layer="4372" to-port="0" />
		<edge from-layer="4366" from-port="2" to-layer="4380" to-port="0" />
		<edge from-layer="4367" from-port="2" to-layer="4383" to-port="0" />
		<edge from-layer="4368" from-port="0" to-layer="4372" to-port="1" />
		<edge from-layer="4369" from-port="0" to-layer="4372" to-port="2" />
		<edge from-layer="4370" from-port="0" to-layer="4372" to-port="3" />
		<edge from-layer="4371" from-port="0" to-layer="4372" to-port="4" />
		<edge from-layer="4372" from-port="5" to-layer="4375" to-port="0" />
		<edge from-layer="4373" from-port="0" to-layer="4374" to-port="0" />
		<edge from-layer="4374" from-port="1" to-layer="4375" to-port="1" />
		<edge from-layer="4375" from-port="2" to-layer="4381" to-port="0" />
		<edge from-layer="4376" from-port="0" to-layer="4380" to-port="1" />
		<edge from-layer="4377" from-port="0" to-layer="4380" to-port="2" />
		<edge from-layer="4378" from-port="0" to-layer="4380" to-port="3" />
		<edge from-layer="4379" from-port="0" to-layer="4380" to-port="4" />
		<edge from-layer="4380" from-port="5" to-layer="4381" to-port="1" />
		<edge from-layer="4381" from-port="2" to-layer="4382" to-port="0" />
		<edge from-layer="4382" from-port="2" to-layer="4383" to-port="1" />
		<edge from-layer="4383" from-port="2" to-layer="4392" to-port="0" />
		<edge from-layer="4384" from-port="2" to-layer="4385" to-port="0" />
		<edge from-layer="4385" from-port="2" to-layer="4387" to-port="0" />
		<edge from-layer="4386" from-port="0" to-layer="4387" to-port="1" />
		<edge from-layer="4387" from-port="2" to-layer="4392" to-port="1" />
		<edge from-layer="4388" from-port="2" to-layer="4389" to-port="0" />
		<edge from-layer="4389" from-port="2" to-layer="4391" to-port="0" />
		<edge from-layer="4390" from-port="0" to-layer="4391" to-port="1" />
		<edge from-layer="4391" from-port="2" to-layer="4392" to-port="2" />
		<edge from-layer="4392" from-port="5" to-layer="4394" to-port="0" />
		<edge from-layer="4393" from-port="0" to-layer="4394" to-port="1" />
		<edge from-layer="4394" from-port="2" to-layer="4396" to-port="0" />
		<edge from-layer="4395" from-port="0" to-layer="4396" to-port="1" />
		<edge from-layer="4396" from-port="2" to-layer="4399" to-port="0" />
		<edge from-layer="4397" from-port="0" to-layer="4398" to-port="0" />
		<edge from-layer="4398" from-port="1" to-layer="4399" to-port="1" />
		<edge from-layer="4399" from-port="2" to-layer="4400" to-port="1" />
		<edge from-layer="4400" from-port="2" to-layer="4404" to-port="0" />
		<edge from-layer="4400" from-port="2" to-layer="4411" to-port="0" />
		<edge from-layer="4400" from-port="2" to-layer="4424" to-port="0" />
		<edge from-layer="4401" from-port="0" to-layer="4412" to-port="0" />
		<edge from-layer="4402" from-port="0" to-layer="4410" to-port="0" />
		<edge from-layer="4403" from-port="0" to-layer="4404" to-port="1" />
		<edge from-layer="4404" from-port="2" to-layer="4406" to-port="0" />
		<edge from-layer="4405" from-port="0" to-layer="4406" to-port="1" />
		<edge from-layer="4406" from-port="2" to-layer="4408" to-port="0" />
		<edge from-layer="4407" from-port="0" to-layer="4408" to-port="1" />
		<edge from-layer="4408" from-port="2" to-layer="4409" to-port="0" />
		<edge from-layer="4409" from-port="1" to-layer="4410" to-port="1" />
		<edge from-layer="4410" from-port="2" to-layer="4411" to-port="1" />
		<edge from-layer="4411" from-port="2" to-layer="4412" to-port="1" />
		<edge from-layer="4412" from-port="2" to-layer="4415" to-port="0" />
		<edge from-layer="4412" from-port="2" to-layer="4419" to-port="0" />
		<edge from-layer="4413" from-port="0" to-layer="4414" to-port="0" />
		<edge from-layer="4414" from-port="1" to-layer="4415" to-port="1" />
		<edge from-layer="4415" from-port="2" to-layer="4416" to-port="0" />
		<edge from-layer="4416" from-port="1" to-layer="4420" to-port="0" />
		<edge from-layer="4417" from-port="0" to-layer="4418" to-port="0" />
		<edge from-layer="4418" from-port="1" to-layer="4419" to-port="1" />
		<edge from-layer="4419" from-port="2" to-layer="4420" to-port="1" />
		<edge from-layer="4420" from-port="2" to-layer="4423" to-port="0" />
		<edge from-layer="4421" from-port="0" to-layer="4422" to-port="0" />
		<edge from-layer="4422" from-port="1" to-layer="4423" to-port="1" />
		<edge from-layer="4423" from-port="2" to-layer="4424" to-port="1" />
		<edge from-layer="4424" from-port="2" to-layer="4427" to-port="0" />
		<edge from-layer="4424" from-port="2" to-layer="4434" to-port="0" />
		<edge from-layer="4425" from-port="0" to-layer="4433" to-port="0" />
		<edge from-layer="4426" from-port="0" to-layer="4427" to-port="1" />
		<edge from-layer="4427" from-port="2" to-layer="4429" to-port="0" />
		<edge from-layer="4428" from-port="0" to-layer="4429" to-port="1" />
		<edge from-layer="4429" from-port="2" to-layer="4431" to-port="0" />
		<edge from-layer="4430" from-port="0" to-layer="4431" to-port="1" />
		<edge from-layer="4431" from-port="2" to-layer="4432" to-port="0" />
		<edge from-layer="4432" from-port="1" to-layer="4433" to-port="1" />
		<edge from-layer="4433" from-port="2" to-layer="4434" to-port="1" />
		<edge from-layer="4434" from-port="2" to-layer="4435" to-port="1" />
		<edge from-layer="4435" from-port="2" to-layer="4436" to-port="0" />
		<edge from-layer="4436" from-port="2" to-layer="4437" to-port="0" />
	</edges>
	<rt_info>
		<Runtime_version value="2025.4.1-20426-82bbf0292c5-releases/2025/4" />
		<conversion_parameters>
			<framework value="pytorch" />
			<is_python_object value="True" />
		</conversion_parameters>
		<optimum>
			<optimum_intel_version value="1.27.0" />
			<optimum_version value="2.1.0" />
			<pytorch_version value="2.10.0" />
			<transformers_version value="4.57.6" />
		</optimum>
		<runtime_options>
			<ACTIVATIONS_SCALE_FACTOR value="8.0" />
			<KV_CACHE_PRECISION value="f16" />
		</runtime_options>
	</rt_info>
</net>
